example/torchkrates.pth (torch, 534100 bytes, 47 tensors)

inv_feature_embedding.embedding.weight f4 [132, 119]
0	0x3d8f88cb	0.07008513
1	0x3d9bd358	0.0760867
2	0xbcafeddb	-0.021475723
3	0x3dac75bf	0.08420896
4	0xbca489b3	-0.020085191
5	0x3c978960	0.018498123
6	0xbd36cddf	-0.044629928
7	0x3d5c8342	0.053836115
8	0x3da58030	0.080810905
9	0xbd89bb33	-0.067251585
10	0x3da32eca	0.07967909
11	0x3c8c8c8e	0.017156865
12	0x3d8ab431	0.0677265
13	0x3c4b67de	0.012414901
14	0x3d350d46	0.04420211
15	0xbc540eb4	-0.012942959
16	0x3d90b9db	0.07066699
17	0x3c5dff3a	0.01354962
18	0xbd2f49f6	-0.042795144
19	0x3cbf6b15	0.02336649
20	0xbd2cff4c	-0.042235658
21	0xbc302262	-0.010750385
22	0xbd188114	-0.037232473
23	0x3d791514	0.060811117
24	0xbd94323d	-0.07236145
25	0xbd2d199b	-0.042260747
26	0xbcd40d4e	-0.02588525
27	0xbd61c3ff	-0.055118557
28	0x3c0dc17b	0.008652086
29	0xbdb96d3e	-0.090540394
30	0x3da98cb0	0.08278787
31	0xbd9f7aa2	-0.07787062
32	0x3d90f0b8	0.070771635
33	0x3c79f2b4	0.015255619
34	0xbcf3d705	-0.029765615
35	0x3d680715	0.05664738
36	0x3c6a1340	0.014286816
37	0x3d97afda	0.07406588
38	0x3c243076	0.01002132
39	0xbcecd51c	-0.028910212
40	0x3cc9c542	0.024630193
41	0xbccba50e	-0.024858978
42	0x3d1e0602	0.03857995
43	0x3da79e49	0.081844874
44	0x3d590cb5	0.052990634
45	0xbd242640	-0.04007554
46	0x3d58c04c	0.052917764
47	0x3c865dc8	0.01640214
48	0x3d3eae87	0.04655316
49	0xbd64db56	-0.055873238
50	0xbdb9d863	-0.090744756
51	0xbd11120f	-0.035417613
52	0xbd900032	-0.07031287
53	0x3d9a0c40	0.07521868
54	0x3cd84cc3	0.02640379
55	0x3d1b875e	0.037970893
56	0x3ced7fd2	0.028991614
57	0xbad104cb	-0.0015946863
58	0x3d92ed40	0.07174158
59	0xbd856448	-0.06513268
60	0x3bbd2200	0.0057718754
61	0xbd8023d7	-0.06256836
62	0x3ce78f51	0.02826658
63	0xbd014efe	-0.031569473
64	0x3ce61b2f	0.028089134
65	0xbc9c74bc	-0.019098632
66	0x3d9bb5bc	0.076030225
67	0xbd5e8c2c	-0.054332897
68	0xbd5fef73	-0.054671716
69	0xbd5ff2e9	-0.054675017
70	0x3da8dc7b	0.08245178
71	0x3cfa4210	0.03054908
72	0x3db4a71e	0.088209376
73	0xbd9aefef	-0.07565295
74	0xbdba36f5	-0.090925135
75	0xbd92e180	-0.07171917
76	0xbd7c94c3	-0.061665308
77	0x3d181598	0.03712997
78	0x3d067341	0.03282476
79	0x3d9bff64	0.07617071
80	0xbd41e841	-0.047340635
81	0xbd7ff80d	-0.06249242
82	0x3d4738a9	0.04863802
83	0xbd17c545	-0.037053365
84	0x3d63e338	0.055636615
85	0xbcb23401	-0.021753313
86	0x3d56caa9	0.052439366
87	0xbd91de2c	-0.07122454
88	0xbd3d7c5a	-0.04626117
89	0x3ce4f329	0.027947979
90	0x3c9ec22c	0.019379698
91	0xbcbf76b3	-0.02337203
92	0x3d5fcfde	0.054641597
93	0x3d7f412b	0.06231801
94	0xbd8824d9	-0.06647653
95	0xbd4874e8	-0.048939615
96	0x3dabe7ff	0.08393859
97	0xbcfd65eb	-0.030932387
98	0xbd051d1c	-0.032498464
99	0xbdb5a7f4	-0.08869925
100	0xbd5706ab	-0.052496593
101	0x3cbb97a8	0.022899464
102	0xbc463e37	-0.012099794
103	0xbd884719	-0.06654186
104	0x3b0ceb92	0.0021502716
105	0xbd803ddb	-0.06261798
106	0xbd9f4722	-0.077772394
107	0xbd4ec33d	-0.050479162
108	0xbda44feb	-0.08023056
109	0xbd6f150c	-0.05836968
110	0x3dbbaa9b	0.091634
111	0x3c8dd662	0.01731414
112	0x3ce76a5a	0.028248955
113	0xbdaf1a1e	-0.08549903
114	0xbd769af1	-0.060206357
115	0xbcf9f612	-0.030512843
116	0x3c6adb52	0.014334517
117	0xbda53241	-0.08066226
118	0xbd21c8ba	-0.03949807
119	0xbd60c9b4	-0.05487986
120	0x398530c9	0.00025404085
121	0xbd0bb79b	-0.034110647
122	0xbbd0273a	-0.0063523324
123	0xbd7e6fab	-0.062118214
124	0xbd80dd1d	-0.06292174
125	0xbd5b0e38	-0.053480357
126	0xbd008697	-0.031378355
127	0xbd942df2	-0.07235326
128	0x3d9d6a0a	0.07686241
129	0xbc9509d7	-0.018193169
130	0x3da187e0	0.07887244
131	0x3ce9fc4a	0.028562684
132	0xbd9efa40	-0.07762575
133	0x3d81ec2f	0.063438766
134	0xbcce9f62	-0.025222484
135	0xbd0fee60	-0.03513944
136	0xbd9bd65a	-0.07609244
137	0xbdbaa4c1	-0.091134556
138	0x3cd6db84	0.02622772
139	0xbca40ae0	-0.020024717
140	0x3d122ed4	0.03568919
141	0xbd9a123d	-0.0752301
142	0x3d8b622f	0.068058364
143	0xbd89cfa7	-0.0672906
144	0xbc81abb1	-0.01582894
145	0x3c9cda48	0.019147053
146	0x3d41d792	0.047324724
147	0x3d979078	0.07400602
148	0x3dab05fb	0.0835075
149	0xbd94dcf3	-0.07268705
150	0x3cbcfded	0.0230703
151	0xbd2180ea	-0.039429583
152	0xbc249666	-0.010045623
153	0xbd8c857c	-0.068613976
154	0x3dab0125	0.08349828
155	0xbd89cab1	-0.067281134
156	0x3d48acf4	0.048993066
157	0x3d03f55c	0.032216415
158	0x3cf4075a	0.029788662
159	0xbd4b006e	-0.049560957
160	0x3daaa57c	0.08332345
161	0x3ca5060d	0.020144487
162	0x3c4134f9	0.011792415
163	0xbda57257	-0.08078449
164	0x3d1d9f3f	0.038481947
165	0xbc61519a	-0.0137523655
166	0xbd2c0431	-0.041996185
167	0x3da1422d	0.0787395
168	0x3ca76ced	0.020437682
169	0xbd4fbe7b	-0.050718766
170	0xbd3e0b7e	-0.04639768
171	0xbb8f734f	-0.0043777595
172	0x3d51a741	0.051184896
173	0xbcbfe541	-0.023424746
174	0xbd563d42	-0.052304514
175	0xbd009492	-0.031391688
176	0xbd8c4177	-0.06848424
177	0x3d05e883	0.032692444
178	0x3d915175	0.07095615
179	0xbdb0bef1	-0.08630169
180	0x3cae692d	0.021290386
181	0x3d41f840	0.04735589
182	0x3c882bc6	0.016622435
183	0xbd05b7b3	-0.032645892
184	0x3d43fa8b	0.04784636
185	0x3d4551cd	0.048173714
186	0x3d0c66ef	0.034277853
187	0xbc83f5ab	-0.016108355
188	0xbcc6dae1	-0.024274291
189	0x3c20ad39	0.0098069245
190	0xbc84a8fa	-0.016193856
191	0xbcdfc965	-0.027317712
192	0x3d70025c	0.058596
193	0x3da157f3	0.07878103
194	0xbc14af9d	-0.009075073
195	0xbca82330	-0.020524591
196	0x3aaf54dc	0.001337673
197	0xbbb35a96	-0.005473445
198	0x3cb48a03	0.022038465
199	0x3cd271af	0.025688974
200	0xbdaa8418	-0.08325976
201	0xbd0a90f1	-0.033829633
202	0x3d9e19ec	0.07719788
203	0x3d12451e	0.035710447
204	0xbb956752	-0.004559436
205	0xbd6260fe	-0.05526828
206	0xbd65b86c	-0.05608408
207	0xbda82bd0	-0.082114816
208	0xbcf4c8d8	-0.029880926
209	0x3cfd9a25	0.03095729
210	0x3d6f69fb	0.05845068
211	0x3d2d5ba5	0.042323727
212	0xbda5f397	-0.08103102
213	0xbd61cca6	-0.05512681
214	0xbc6d071e	-0.014467029
215	0x3db59c2d	0.08867679
216	0x3c594389	0.013260731
217	0xbcc279fd	-0.02373981
218	0x3d1b5778	0.037925214
219	0xbd0f0367	-0.034915354
220	0xbd730808	-0.05933383
221	0x3d890768	0.06690866
222	0xbd2abb36	-0.041682445
223	0xbc968ada	-0.018376756
224	0xbdbac3b0	-0.09119356
225	0x3d7b4c2c	0.06135194
226	0x3d8e3cfc	0.069452256
227	0x3d08d7c8	0.03340891
228	0xbd82e7fa	-0.06391902
229	0xbdb949b7	-0.09047263
230	0xbd987a76	-0.074452326
231	0x3d8bff66	0.06835823
232	0x3d34451d	0.044011224
233	0x3d9dfbe2	0.077140585
234	0x3d44b3d7	0.04802307
235	0x3cbe0fdc	0.023200922
236	0xba6b533a	-0.00089769403
237	0xbd8ec6fd	-0.06971548
238	0xbda0d9ac	-0.078540176
239	0xbdaf9a2b	-0.08574327
240	0x3d19b505	0.03752615
241	0xbd385938	-0.04500696
242	0xbc9721ed	-0.018448794
243	0xbd58172e	-0.05275648
244	0xbc88d7ae	-0.016704407
245	0xbd84234b	-0.06452044
246	0xbd755826	-0.059898518
247	0x3cf919f3	0.030407881
248	0xbcdf2eb3	-0.027243948
249	0x3d67ccc2	0.056591757
250	0xbcf0ea14	-0.029408492
251	0xbd89b845	-0.067246
252	0xbc847f9c	-0.01617413
253	0xbd360348	-0.044436723
254	0xbce5bfed	-0.028045619
255	0xbdb2ba3e	-0.08726929

radial_embedding.radial_basis_fn.centers f4 [32]
0	0x00000000	0.0
1	0x3e25294a	0.16129032
2	0x3ea5294a	0.32258064
3	0x3ef7bdef	0.48387095
4	0x3f25294a	0.6451613
5	0x3f4e739c	0.80645156
6	0x3f77bdef	0.9677419
7	0x3f908421	1.1290323
8	0x3fa5294a	1.2903225
9	0x3fb9ce73	1.4516128
10	0x3fce739c	1.6129031
11	0x3fe318c6	1.7741935
12	0x3ff7bdef	1.9354838
13	0x4006318c	2.096774
14	0x40108421	2.2580645
15	0x401ad6b5	2.4193547
16	0x4025294b	2.5806453
17	0x402f7bdf	2.7419355
18	0x4039ce74	2.903226
19	0x40442108	3.064516
20	0x404e739d	3.2258065
21	0x4058c632	3.387097
22	0x406318c6	3.548387
23	0x406d6b5b	3.7096775
24	0x4077bdf0	3.8709679
25	0x40810842	4.032258
26	0x4086318c	4.193548
27	0x408b5ad7	4.354839
28	0x40908421	4.516129
29	0x4095ad6b	4.677419
30	0x409ad6b6	4.83871
31	0x40a00000	5.0

radial_embedding.radial_basis_fn.widths f4 [32]
0	0x3e25294a	0.16129032
1	0x3e25294a	0.16129032
2	0x3e25294a	0.16129032
3	0x3e25294a	0.16129032
4	0x3e25294a	0.16129032
5	0x3e25294a	0.16129032
6	0x3e25294a	0.16129032
7	0x3e25294a	0.16129032
8	0x3e25294a	0.16129032
9	0x3e25294a	0.16129032
10	0x3e25294a	0.16129032
11	0x3e25294a	0.16129032
12	0x3e25294a	0.16129032
13	0x3e25294a	0.16129032
14	0x3e25294a	0.16129032
15	0x3e25294a	0.16129032
16	0x3e25294a	0.16129032
17	0x3e25294a	0.16129032
18	0x3e25294a	0.16129032
19	0x3e25294a	0.16129032
20	0x3e25294a	0.16129032
21	0x3e25294a	0.16129032
22	0x3e25294a	0.16129032
23	0x3e25294a	0.16129032
24	0x3e25294a	0.16129032
25	0x3e25294a	0.16129032
26	0x3e25294a	0.16129032
27	0x3e25294a	0.16129032
28	0x3e25294a	0.16129032
29	0x3e25294a	0.16129032
30	0x3e25294a	0.16129032
31	0x3e25294a	0.16129032

euclidean_transformers.0.filter_net_inv.mlp_rbf.0.weight f4 [132, 32]
0	0x3e0c4159	0.13696803
1	0x3d304e02	0.043043144
2	0x3ddde29b	0.10834237
3	0xbdec29e2	-0.11531426
4	0xbe130c56	-0.14360175
5	0xbceda514	-0.02900938
6	0xbdc6ecfd	-0.09713171
7	0xbd7541fa	-0.059877373
8	0x3e14cc6b	0.14531104
9	0x3dc180d4	0.094484
10	0xbd55ef52	-0.052230187
11	0x3ddbd7ee	0.10734545
12	0xbdf27fcf	-0.11840784
13	0xbdd26075	-0.10272304
14	0x3da05caa	0.07830174
15	0x3d9c4d81	0.0763197
16	0xbd515bf4	-0.051113084
17	0xbdf70f44	-0.120634586
18	0x3ce2590f	0.027630357
19	0x3e2ea04e	0.17053339
20	0x3e32291f	0.17398499
21	0x3e148219	0.14502753
22	0xbe07bf4c	-0.13256568
23	0x3deffd72	0.11718263
24	0x3d049991	0.032373015
25	0xbe12ed37	-0.14348303
26	0x3c3a04e7	0.011353708
27	0xbe2ed06b	-0.17071693
28	0x3d1b7119	0.037949655
29	0xbdc71338	-0.097204626
30	0xbdf397ae	-0.11894165
31	0x3c0cee17	0.008601687
32	0x3df42f25	0.119230546
33	0x3dcb3520	0.09922242
34	0xbde00b16	-0.109396145
35	0x3dcdedb4	0.10055104
36	0x3d86b4a0	0.0657742
37	0xbdf1af69	-0.11801035
38	0xbd3ac3b0	-0.04559678
39	0xbd2d8418	-0.042362303
40	0xbe132119	-0.14368095
41	0xbe252d43	-0.16130547
42	0xbdf5d8f4	-0.12004271
43	0x3e248fcf	0.16070484
44	0xbd4063bb	-0.04697011
45	0x3c8b0285	0.016968975
46	0xbe16512d	-0.14679404
47	0xbcf918ca	-0.030407328
48	0x3d88c7f6	0.066787645
49	0xbb6ac53f	-0.0035823134
50	0xbc639abf	-0.013891875
51	0xbb1a51b4	-0.0023547234
52	0x3df36dba	0.11886163
53	0xbdff0b22	-0.12453295
54	0xbe228f4d	-0.15874977
55	0xbe2e5ba0	-0.1702714
56	0x3d933624	0.07188061
57	0xbdc9abbb	-0.09847208
58	0xbd9e5803	-0.07731631
59	0xbcbf8af0	-0.02338168
60	0x3dd43e6a	0.10363467
61	0x3ac961be	0.0015364212
62	0x3d0dbad2	0.034601994
63	0xbd4b63c3	-0.049655687
64	0x3dc508ec	0.09620842
65	0xbdb49cda	-0.088189796
66	0x3e0b88cb	0.13626401
67	0x3e1500f8	0.14551151
68	0xbe22d62a	-0.1590201
69	0xbd65454f	-0.0559743
70	0xbcae80ee	-0.021301713
71	0xbdc2f2ec	-0.0951899
72	0x3c1b8370	0.009491786
73	0xbd6da7d2	-0.058021374
74	0x3e15dca7	0.14634953
75	0xbc652348	-0.0139854625
76	0xbdca6069	-0.0988167
77	0xbdb3c660	-0.087780714
78	0xbe292da8	-0.16521323
79	0xbdde829f	-0.10864758
80	0x3d0c94aa	0.034321465
81	0x3d5ab84b	0.05339841
82	0xbd9c0994	-0.076190144
83	0x3aebbf90	0.0017986167
84	0x3db5a78a	0.08869846
85	0x3cbf6c22	0.023366991
86	0x3ca324e8	0.01991506
87	0xbded8074	-0.11596766
88	0x3e2a3076	0.16620049
89	0xbd55c3f7	-0.05218884
90	0x3c6eee6a	0.0145832095
91	0xbcb256f8	-0.021769986
92	0x3d9d493c	0.07679984
93	0xbe15f00e	-0.14642355
94	0x3d24c844	0.04023005
95	0xbe0c8211	-0.13721491
96	0x3e0ee184	0.13953215
97	0xbd8eb46e	-0.06968008
98	0x3d13d060	0.036087394
99	0x3c3fab60	0.011698574
100	0xbd8fe660	-0.070263624
101	0xbcc145ad	-0.023592794
102	0x3e2c2f8b	0.16815011
103	0xbdb70f31	-0.089384444
104	0xbd3c3729	-0.045951042
105	0x3deea412	0.11652388
106	0x3dd48c22	0.10378291
107	0x3d4854d2	0.048909016
108	0xbe1e65fa	-0.15468588
109	0xbce9983e	-0.028514978
110	0xbe325c75	-0.17418082
111	0xbdb2ec17	-0.08736437
112	0xbc9ad0e4	-0.018898435
113	0xbd88d6e0	-0.06681609
114	0x3d94a069	0.07257158
115	0x3ae84fec	0.0017724014
116	0x3d0e7faf	0.034789737
117	0x3d54440d	0.05182271
118	0x3d2ecf60	0.042678237
119	0xbe317849	-0.17331041
120	0x3d1231bf	0.035691973
121	0x3e14f24a	0.14545551
122	0x3d7466e8	0.05966845
123	0x3e01f23c	0.12690061
124	0xbdc4070f	-0.09571659
125	0xbd37cd29	-0.04487339
126	0xbe252844	-0.16128641
127	0xbe255238	-0.16144645
128	0xbe087770	-0.13326812
129	0x3db90307	0.090337805
130	0xbdd4f06b	-0.103974186
131	0x3d730df8	0.059339494
132	0x3dfabbf8	0.122428834
133	0x3d814ddb	0.06313678
134	0xbd97bee9	-0.0740946
135	0x3de74881	0.11293126
136	0x3d84c6f7	0.06483262
137	0x3d2436ab	0.040091198
138	0xbd35a5c0	-0.044347525
139	0x3e0fce0b	0.14043443
140	0x3daef786	0.08543305
141	0xbcfe8b6d	-0.031072343
142	0x3da6f794	0.081526905
143	0xbdf140ce	-0.11779939
144	0xbc7acd4b	-0.015307735
145	0xbe16490e	-0.14676306
146	0xbe218995	-0.1577514
147	0x3e1372b5	0.14399226
148	0x3dc072c2	0.09396888
149	0xbd75bfd7	-0.059997406
150	0xbdc9b9c6	-0.098498866
151	0xbd8aed24	-0.06783512
152	0xbd2c1477	-0.042011704
153	0xbcf65d8c	-0.030073904
154	0x3e1b0116	0.15137133
155	0x3e2d45fd	0.1692123
156	0x3dbd0b95	0.09230725
157	0xbdca8ac8	-0.09889752
158	0xbd7f4702	-0.062323578
159	0x3cb49742	0.022044782
160	0xbdd7a0f1	-0.10528744
161	0x3e21f124	0.15814644
162	0xbdd69687	-0.104779296
163	0x3e278d32	0.16362455
164	0xba4af361	-0.0007741955
165	0x3e24024c	0.16016501
166	0x3dec9de7	0.11553555
167	0x3c822f2e	0.015891638
168	0x3e31ae70	0.17351699
169	0x3c7d09e0	0.015444249
170	0x3d8af76a	0.06785472
171	0xbd3abd91	-0.04559094
172	0xbe1f67b8	-0.1556691
173	0xbdddeecd	-0.10836563
174	0xbe11b3d5	-0.14228757
175	0x3df800e0	0.12109542
176	0x3da100fd	0.078615166
177	0x3d4bfe22	0.049802907
178	0x3e27d632	0.16390303
179	0xbdff946a	-0.124794796
180	0x3d4bb087	0.049728896
181	0x3bf9e96e	0.007626704
182	0xbe1e712d	-0.1547286
183	0xbe2edc91	-0.17076327
184	0x3e2fcecd	0.17168732
185	0x3e19b606	0.15010843
186	0x3d03907d	0.032120217
187	0xbde86b66	-0.113486096
188	0x3cc9c177	0.024628384
189	0x3e0113e8	0.1260525
190	0xbd1d89ec	-0.03846161
191	0x3b20de40	0.0024546534
192	0xbdb212c9	-0.08694989
193	0x3e08d6e0	0.13363218
194	0xbddcaab2	-0.10774745
195	0xbdcb70f7	-0.09933656
196	0xbd3a0481	-0.04541445
197	0xbbb79854	-0.0056028757
198	0x3d366eca	0.04453925
199	0x3e0ce723	0.13760047
200	0x3dddb4a7	0.10825472
201	0x3cd0ec5d	0.025503332
202	0x3d3de14e	0.046357445
203	0x3e197257	0.14985023
204	0xbd549fa5	-0.05191006
205	0xbdac5a6c	-0.08415684
206	0x3e0aa231	0.13538434
207	0x3e1d0a3c	0.15335935
208	0xbbed422c	-0.0072405543
209	0xbbe337aa	-0.006934126
210	0x3e095f36	0.13415226
211	0xbd070a84	-0.032969013
212	0x3e32b13f	0.17450427
213	0xbe04a36d	-0.12952967
214	0x3d31fd2a	0.043454327
215	0x3e091fbc	0.13391012
216	0xbe2e4918	-0.1702007
217	0xbd3f8049	-0.0467532
218	0x3e1a4174	0.15064031
219	0x3e030705	0.12795646
220	0xbdf1955f	-0.117960684
221	0x3e10d1d8	0.14142549
222	0x3e1b1fd8	0.15148866
223	0x3d8e4ebd	0.06948612
224	0xbd377f50	-0.04479915
225	0xbdd00b51	-0.101584084
226	0xbd157ece	-0.036497883
227	0x3d64000a	0.0556641
228	0x3d194cfa	0.037426926
229	0x3cc7437a	0.024324168
230	0xbe004dae	-0.12529632
231	0x3e12c0c8	0.14331353
232	0x3caaefbf	0.020866273
233	0x3d159dc9	0.03652743
234	0xbe168b84	-0.14701658
235	0xbd4c01c2	-0.049806364
236	0xbd2edce0	-0.04269111
237	0x3dfa2671	0.12214363
238	0x3e0fe3fd	0.14051814
239	0xbde18484	-0.110116035
240	0xbdf69733	-0.12040558
241	0xbdd69e21	-0.104793794
242	0xbd4afec7	-0.04955938
243	0xbe0aef35	-0.13567813
244	0x3e2745a2	0.16335157
245	0xbdf10aff	-0.117696755
246	0x3e15302f	0.14569162
247	0x3d93174b	0.07182177
248	0xbd84d505	-0.06485943
249	0xbdb26e42	-0.08712436
250	0x3c919125	0.017769406
251	0xbe3173c8	-0.17329323
252	0xbd9a3b73	-0.0753087
253	0x3cbe3edd	0.023223335
254	0xbe2e9b3f	-0.17051409
255	0x3e295f9f	0.16540383

euclidean_transformers.0.filter_net_inv.mlp_rbf.0.bias f4 [132]
0	0xbdef4a4b	-0.11684092
1	0x3c2295cf	0.009923412
2	0xbe1d8d84	-0.15386015
3	0xbc70caa7	-0.014696754
4	0x3e12556f	0.14290403
5	0x3db92035	0.09039346
6	0x3dcfb45a	0.10141821
7	0xbdcb8809	-0.09938056
8	0xbe2077ab	-0.1567065
9	0xbd44f4c2	-0.04808498
10	0x3e084558	0.13307703
11	0x3e0ce46c	0.13759011
12	0x3e315c0a	0.17320266
13	0x3d9dc618	0.07703799
14	0xbc239da5	-0.009986316
15	0xbe2c7458	-0.16841257
16	0xbc1d190d	-0.009588492
17	0x3dd5d1e9	0.10440428
18	0x3d816555	0.06318156
19	0xbd61183b	-0.05495475
20	0xbdb6415b	-0.08899184
21	0x3dcc899f	0.09987187
22	0x3c12fc55	0.008971293
23	0x3c4160fd	0.011802909
24	0xbd4fa4cc	-0.050694272
25	0x3d950fb4	0.07278386
26	0xbd3e2bd1	-0.046428505
27	0x3ddc8d43	0.10769131
28	0x3d10991b	0.035302263
29	0xbd587bb1	-0.052852336
30	0xbc8cebbf	-0.017202256
31	0xbda3a200	-0.079898834
32	0x3e06ccba	0.13164034
33	0xbd49d1b5	-0.049272258
34	0x3e163124	0.14667183
35	0xbe311c4e	-0.17295954
36	0x3de9873f	0.11402749
37	0x3d92b252	0.07162918
38	0x3e1377fc	0.14401239
39	0xbd826e9f	-0.063687555
40	0xbdfe7f10	-0.12426579
41	0x3d81df41	0.063414104
42	0xbe0e01e1	-0.13867904
43	0x3e12188c	0.14267176
44	0x3c9f51e0	0.01944822
45	0x3dfcbe61	0.123409994
46	0x3dfd8700	0.12379265
47	0xbd21d48c	-0.03950934
48	0xbd92306c	-0.07138142
49	0xbd4b6f14	-0.04966648
50	0xbdc09549	-0.09403474
51	0x3d601eff	0.05471706
52	0x3d16f889	0.036858115
53	0xbde8d7e3	-0.11369302
54	0x3d0c5cf5	0.03426834
55	0x3e27f56c	0.16402215
56	0x3e11436d	0.14185877
57	0x3dc0a1ce	0.09405862
58	0x3cad9620	0.02118975
59	0x3dac17b9	0.08402962
60	0x3dbde5d8	0.09272355
61	0xbd96f86c	-0.073716015
62	0xbd4ec21a	-0.05047808
63	0xbbf142f3	-0.0073627173
64	0x3dba08bf	0.090836994
65	0xbe1e3061	-0.15448143
66	0x3cfeb574	0.031092383
67	0x3e00f706	0.12594232
68	0x3d5c30eb	0.05375759
69	0xbe0928fc	-0.1339454
70	0xbdc6c304	-0.09705165
71	0xbe21aa56	-0.15787634
72	0xbe127b16	-0.14304766
73	0xbe11991b	-0.14218561
74	0xbc6628a5	-0.014047776
75	0xbd956176	-0.0729398
76	0xbe2f4dfa	-0.1711959
77	0x3e20ca8d	0.15702267
78	0x3d2cfd58	0.042233795
79	0xbdee6802	-0.11640932
80	0xbdcab45b	-0.09897681
81	0xbc2f269d	-0.0106903585
82	0x3def1538	0.11673969
83	0xbd66f3a1	-0.056384686
84	0xbd860458	-0.06543797
85	0x3de4feb8	0.11181396
86	0xbccee8b5	-0.025257448
87	0xbd823739	-0.06358189
88	0x3df284cb	0.118417345
89	0xbe118245	-0.1420985
90	0x3d401445	0.04689433
91	0xbe1d68de	-0.15372035
92	0x3be07790	0.0068501905
93	0xbcfc8fdb	-0.030830314
94	0xbdf61ed1	-0.120175965
95	0xbdc0619f	-0.0939362
96	0x3de8dede	0.113706335
97	0x3e0fb146	0.14032468
98	0x3d172d97	0.036908712
99	0x3d97cfe7	0.07412701
100	0x3dcb91a6	0.099398896
101	0xbcfa37c9	-0.030544179
102	0xbc1fcb19	-0.009753012
103	0x3e13155f	0.14363621
104	0x3dde084b	0.108414255
105	0xbd894e7d	-0.067044236
106	0x3d254003	0.04034425
107	0x3d5bf1b2	0.053697295
108	0xbd8019ec	-0.06254944
109	0x3ddc7bac	0.10765776
110	0xbd90003a	-0.07031293
111	0x3d944db0	0.0724138
112	0x3dcc16c8	0.09965283
113	0xbc9278ae	-0.01787981
114	0xbe0ef60a	-0.13961044
115	0xbe152887	-0.14566241
116	0xbcb66237	-0.02226363
117	0x3dc9c77f	0.09852504
118	0x3e22ddd5	0.15904935
119	0x3dd83cba	0.10558458
120	0x3c3250b1	0.010883496
121	0xbc9cff6b	-0.019164762
122	0x3ca18017	0.019714398
123	0xbd817544	-0.06321195
124	0xbd12b4b2	-0.035816856
125	0x3dcce254	0.10004106
126	0xbe13bb7d	-0.1442699
127	0xbde50400	-0.111824036
128	0xbd40dd33	-0.047085952
129	0xbde1d518	-0.110269725
130	0xbe06ff3a	-0.13183299
131	0x3db1f72d	0.08689723

euclidean_transformers.0.filter_net_inv.mlp_rbf.mlp_rbf_layer_1.0.weight f4 [132, 132]
0	0x3ce0acac	0.027426086
1	0x3da1bc3b	0.0789723
2	0xbd30b8de	-0.043145053
3	0xbd3314e8	-0.04372111
4	0xbd3d89b9	-0.04627392
5	0x3d66d8a2	0.05635894
6	0xbb8051ac	-0.003915986
7	0xbd883d56	-0.06652324
8	0xbd1d4477	-0.03839537
9	0xbd8fee75	-0.07027904
10	0x3d0acdb9	0.0338876
11	0xbd31b04c	-0.04338102
12	0x3bcc3185	0.006231489
13	0x3d729207	0.059221294
14	0x3d7b7990	0.061395228
15	0xbdae73c4	-0.08518174
16	0x3d2caee7	0.042158987
17	0x3d9e4c30	0.07729375
18	0x3d8ca996	0.068682835
19	0x3d004498	0.031315416
20	0xbb8a4f92	-0.0042209113
21	0xbd500023	-0.05078138
22	0xbd353dff	-0.044248577
23	0xbd49cab0	-0.049265563
24	0xbccc9ca4	-0.024977036
25	0x3d451e78	0.04812476
26	0x3dac8e3f	0.08425569
27	0x3d4e55d5	0.050374825
28	0xbcbde093	-0.023178374
29	0x3c0c7c3a	0.00857454
30	0xbd080cc6	-0.033215307
31	0xbce94d38	-0.028479204
32	0xbc93e79c	-0.018054776
33	0xbb7c1bd1	-0.0038468728
34	0x3bcbbbab	0.00621744
35	0x3d240aee	0.040049486
36	0x3cf643bf	0.0300616
37	0x3d740cda	0.05958257
38	0x3c3d0e1e	0.01153901
39	0xbd8eb62f	-0.069683425
40	0x3bad06ab	0.005280336
41	0x3d11cd11	0.035595957
42	0xbd9e71e1	-0.077365644
43	0x3b806f87	0.003919545
44	0x3d5d49ff	0.054025646
45	0xbd6d171a	-0.05788336
46	0x3d270789	0.04077867
47	0xbd5a5c9d	-0.05331098
48	0x3d0849ab	0.03327338
49	0x3cfdca76	0.03098033
50	0x3d108ccc	0.035290524
51	0xbd75c17c	-0.059998974
52	0x3d1eaa05	0.038736362
53	0xbd7f922a	-0.062395252
54	0xbd3377e4	-0.04381551
55	0x3d110ed5	0.035414536
56	0xbd77fcb0	-0.060543716
57	0x3d4a27ab	0.049354237
58	0x3d37dd56	0.044888817
59	0x3dab2e1d	0.08358405
60	0xbd4aae14	-0.04948242
61	0x3cbe7db4	0.0232533
62	0x3d8b9090	0.068146825
63	0x3d03d140	0.03218198
64	0xbcafef17	-0.021476312
65	0x3d9b550d	0.075845815
66	0x3d609bd8	0.054836124
67	0x3cc182d9	0.023621963
68	0xbce2e257	-0.027695818
69	0xbd5b0bf4	-0.053478196
70	0x3d9ea7e9	0.0774687
71	0x3a795351	0.00095110113
72	0xbc5d0756	-0.013490519
73	0xb9a86e57	-0.00032125667
74	0xbd3b9104	-0.045792595
75	0x3d27d857	0.040977802
76	0x3ca6e3dc	0.020372324
77	0x3c8d01da	0.017212797
78	0xbc5cf47d	-0.013486025
79	0x3cf0edf5	0.029410342
80	0x3d97cbda	0.074119285
81	0x3d3dc3b9	0.046329234
82	0x3da410d8	0.08011025
83	0x3cdb6718	0.026782557
84	0x3d37c6ce	0.04486733
85	0xbce69352	-0.02814642
86	0xbd784c70	-0.06061977
87	0x3d383c14	0.04497917
88	0x3c3f2bd8	0.011668168
89	0xbb45ee86	-0.0030201986
90	0x3c50d2a4	0.012745533
91	0x3d1163c0	0.03549552
92	0xbb61a10e	-0.0034428271
93	0x3d1ff9ec	0.039056703
94	0x3dac480f	0.084121816
95	0xbc4f3740	-0.01264745
96	0xbcc72e70	-0.024314135
97	0xbd2664fd	-0.040623654
98	0x3d608cda	0.054821827
99	0xbcc4acf6	-0.024008255
100	0x3ca34327	0.019929482
101	0xbd74abf3	-0.059734296
102	0x3cdca88c	0.026935838
103	0xbd86a050	-0.06573546
104	0x3c619e2f	0.013770624
105	0xbd504fa6	-0.05085721
106	0xbda32e1b	-0.07967778
107	0x3b97a4a0	0.004627779
108	0x3ce47a3f	0.027890323
109	0xbd76e068	-0.060272604
110	0xbd40ca3d	-0.04706787
111	0x3d6f6039	0.058441374
112	0xbc5549f0	-0.013018116
113	0x3d63a37a	0.055575825
114	0xbd3b0c80	-0.045666218
115	0xbcc19f65	-0.023635576
116	0x3d3895dc	0.045064792
117	0xbd9d24f9	-0.076730676
118	0x3ccf6be3	0.02532
119	0xbd5ddfff	-0.054168697
120	0xbd2edd44	-0.042691484
121	0x3c8b2007	0.016983045
122	0x3d4cc7fd	0.04999541
123	0xbd3a0f4b	-0.04542474
124	0x3c055569	0.008138039
125	0xbc55877a	-0.013032788
126	0xbd7bdd8f	-0.06149059
127	0xbc61ef6f	-0.013789996
128	0x3c13edc5	0.009028857
129	0xbd285907	-0.041100528
130	0xbd32b182	-0.043626316
131	0x3d906925	0.07051305
132	0xbd58d080	-0.052933216
133	0xbc13c915	-0.00902011
134	0x3d86873a	0.06568761
135	0xbd0d295c	-0.03446327
136	0xbd89c99e	-0.067279086
137	0xbd354bd3	-0.044261765
138	0xbd8afe3b	-0.06786772
139	0x3d7b559e	0.061360948
140	0xbd24110b	-0.040055316
141	0x3ceea7c1	0.029132726
142	0x3d3dbc37	0.046322074
143	0xbcae2ea5	-0.021262476
144	0x3d1aab82	0.03776122
145	0x3d970e80	0.073758125
146	0xbc35c517	-0.011094353
147	0x3ce91915	0.028454343
148	0xbd316e2c	-0.04331796
149	0x3d85fb6f	0.06542098
150	0xbda8204a	-0.08209284
151	0xbca75d04	-0.020430095
152	0x3beecc3f	0.0072875316
153	0xbd89b009	-0.06723029
154	0xbd85b0b6	-0.065278456
155	0x3d352e54	0.044233635
156	0xbd97b153	-0.07406869
157	0xbaaa962b	-0.0013014724
158	0x3da13d39	0.078730054
159	0xbd936208	-0.07196432
160	0x3db0ba8b	0.0862933
161	0x3d8d1f9c	0.06890795
162	0xbcbae52e	-0.02281436
163	0x3ce8c1d3	0.028412735
164	0xbcbe4fb9	-0.023231374
165	0xbd39e3be	-0.045383207
166	0x3d566d3c	0.052350268
167	0x3c5376c2	0.012906732
168	0x3cff27fd	0.031146998
169	0x3da1c664	0.07899168
170	0xbc31982b	-0.010839502
171	0xbc1e29ae	-0.009653492
172	0xbd9952cd	-0.07486496
173	0xbd9dbbea	-0.077018574
174	0xbd4734ac	-0.048634216
175	0xbd5cabd3	-0.0538748
176	0x3d890867	0.06691056
177	0xbd129a00	-0.035791397
178	0xbc70e795	-0.014703651
179	0x3d82383e	0.063583836
180	0xbd26a5b4	-0.04068537
181	0x3b98e5b6	0.0046660556
182	0xbd9beaed	-0.07613168
183	0x3d83a630	0.06428182
184	0xbdaf57ef	-0.08561694
185	0x3d576e4e	0.05259543
186	0xbbedb58c	-0.007254308
187	0xbd193bcd	-0.037410546
188	0xbc98d19b	-0.018654635
189	0xbd894e00	-0.067043304
190	0xbce70d16	-0.028204482
191	0x3d7ac11e	0.061219327
192	0x3d91d870	0.0712136
193	0x3d4f4d06	0.050610565
194	0xbd01facb	-0.031733315
195	0xbcb107ec	-0.021610223
196	0x3d0a888f	0.03382164
197	0xbdab6d52	-0.083704606
198	0xbd9fd795	-0.07804791
199	0xbda8beb3	-0.08239498
200	0x3daba452	0.08380951
201	0x3d1cbbbf	0.038264986
202	0xbd2eb94c	-0.04265718
203	0xbcc1daa6	-0.02366383
204	0x3c7e85ca	0.0155348275
205	0x3cdc4569	0.026888566
206	0x3c582cd0	0.013194278
207	0x3d1dcee6	0.03852739
208	0x3c5cd280	0.0134779215
209	0xbcc98760	-0.024600685
210	0x3ccd335f	0.02504891
211	0x3d5d0ecc	0.05396919
212	0xbc3a97e9	-0.011388757
213	0x3cb1a845	0.021686682
214	0xbdb1a913	-0.086748265
215	0xbda11bec	-0.07866654
216	0xbda71d86	-0.08159928
217	0x3ce69fbe	0.028152343
218	0xbd56b11d	-0.052415002
219	0x3d205179	0.0391402
220	0x3ba2315a	0.004949731
221	0x3cfaa707	0.030597223
222	0xbd949e68	-0.07256776
223	0x3d9c487c	0.07631013
224	0xbd9c66a5	-0.076367654
225	0xbcde03ca	-0.027101416
226	0xbc0c7e7d	-0.008575079
227	0x3c8a906a	0.016914565
228	0xbc4d71bc	-0.012539323
229	0xbdaf2441	-0.08551837
230	0xbd603e6d	-0.054747034
231	0xbd454f36	-0.048171245
232	0x3db0986d	0.08622823
233	0x3cbed05e	0.023292717
234	0x3d62d914	0.055382803
235	0xbd151053	-0.03639252
236	0x3d584c84	0.052807346
237	0xbd1b02cf	-0.037844475
238	0x3cd00ac1	0.025395753
239	0x3d08fe70	0.033445776
240	0x3dace97c	0.08442971
241	0x3cc5bbf5	0.024137476
242	0xbbca7b31	-0.0061792363
243	0x3d928daa	0.071559265
244	0x3d754ed2	0.059889622
245	0xbd6f5f54	-0.05844052
246	0xbd1aa425	-0.037754197
247	0x3d74521a	0.05964861
248	0xbcefc4a7	-0.029268576
249	0xbd155e50	-0.036466897
250	0xbc4a62d2	-0.012352662
251	0x3d56d47a	0.052448727
252	0xbd996490	-0.07489884
253	0x3d4bcc13	0.049755167
254	0x3c0128ec	0.007883292
255	0x3d2768ff	0.040871616

euclidean_transformers.0.filter_net_inv.mlp_rbf.mlp_rbf_layer_1.0.bias f4 [132]
0	0x3d8af2b9	0.06784577
1	0xbd653cca	-0.055966176
2	0x3d1a1ee0	0.0376271
3	0x3d02b87e	0.031914227
4	0xbdaae769	-0.08344919
5	0x3b33befe	0.0027427073
6	0x3d9fb73b	0.0779862
7	0x3d73c14e	0.05951052
8	0xbd8cfcf1	-0.06884182
9	0xbd9c3c1b	-0.07628652
10	0xbd4c4950	-0.049874604
11	0x3dad6d79	0.08468146
12	0xbd466adc	-0.048441753
13	0xbd0edcc2	-0.0348785
14	0xbdab5749	-0.08366258
15	0x3ca6e8a5	0.020374605
16	0xbd123ea7	-0.03570428
17	0x3da7feee	0.08202921
18	0xbd4707d8	-0.048591465
19	0xbd1ac14a	-0.03778199
20	0xbd74f114	-0.059800223
21	0x3d3c42ef	0.04596227
22	0xbd88fd6e	-0.06688963
23	0x3cc4ea3c	0.024037473
24	0x3d5e5a1a	0.054285146
25	0x3d92521b	0.071445666
26	0x3d1e71e9	0.038682852
27	0xbda6641d	-0.08124564
28	0x3d84701e	0.06466697
29	0xbd5698eb	-0.052391928
30	0x3daf8479	0.08570189
31	0x3d6a2e0a	0.057172813
32	0xbd7ed03b	-0.062210303
33	0xbd0f4db1	-0.0349862
34	0x3d5b72a0	0.05357611
35	0x3ca62222	0.020279948
36	0xbcd79efb	-0.026320925
37	0x3cade862	0.021228973
38	0xbd8d8bae	-0.069114074
39	0x3cb8e41b	0.022569707
40	0xbca1429b	-0.01968508
41	0xbd0bbc25	-0.034114975
42	0x3c52d5a6	0.012868321
43	0xbbed3d42	-0.0072399685
44	0x3d9e4560	0.07728076
45	0x3bbd7d70	0.0057827756
46	0xbb88d099	-0.0041752574
47	0x3d1f4807	0.03888705
48	0xbd559a6b	-0.052149218
49	0x3d0881da	0.03332696
50	0x3d712e47	0.058882024
51	0x3c52a3b0	0.012856409
52	0xbd45b7c4	-0.048270956
53	0x3c5186cf	0.0127884885
54	0xba33d066	-0.0006859362
55	0x3ba638f0	0.0050727054
56	0xbd54826a	-0.051882185
57	0xbcaaf44c	-0.020868443
58	0x3c01a8ff	0.007913827
59	0xbd8879e3	-0.06663873
60	0x3d17c7b9	0.037055705
61	0x3d879ad7	0.0662133
62	0x3bd2305d	0.0064144568
63	0x3cdfb14e	0.027306225
64	0x3cd5ce53	0.02609936
65	0x3d5917fb	0.053001385
66	0x3d4ac459	0.049503658
67	0xbcebaee7	-0.028769923
68	0x3c05a82f	0.008157774
69	0xbd026bfa	-0.031841256
70	0xbd1e1ea9	-0.03860346
71	0xbdaf10d2	-0.0854813
72	0xbcb11069	-0.02161427
73	0xbd022b1c	-0.031779394
74	0x3da9840a	0.082771376
75	0x3d973c85	0.0738459
76	0x3d96aba5	0.07356957
77	0x3d2e1586	0.042500995
78	0xbd251db3	-0.040311527
79	0xbd1485b7	-0.036260333
80	0xbcb97692	-0.022639547
81	0xbdb10635	-0.08643762
82	0x3daa1a1a	0.0830576
83	0x3d894b10	0.0670377
84	0x3d489a08	0.04897502
85	0x3dafddce	0.08587228
86	0xbd2ec3a0	-0.04266703
87	0x3d901c7b	0.07036682
88	0xbd8cf1d4	-0.068820626
89	0x3d499128	0.049210697
90	0x3cd57348	0.026055947
91	0x3d9c97d2	0.07646145
92	0x3d582f85	0.052779693
93	0xbd9a919f	-0.07547306
94	0xbd623ff8	-0.055236787
95	0xbc763cdf	-0.015029161
96	0xbcd173d6	-0.02556793
97	0x3d6c8c8c	0.057751223
98	0xbc9db818	-0.019252822
99	0x3d86986c	0.06572041
100	0xbbf09b8d	-0.007342762
101	0x3cb5d34d	0.022195483
102	0x3c336109	0.010948428
103	0xbd6d0881	-0.057869438
104	0xbc6d0b41	-0.014468015
105	0x3bab498e	0.0052272743
106	0xbc97c801	-0.018527986
107	0xbd109d1b	-0.035306077
108	0xbc8525ab	-0.016253313
109	0x3c69797a	0.014250154
110	0x3d4a899e	0.04944765
111	0xbd3f8c7e	-0.046764843
112	0xbc6f7fb8	-0.014617853
113	0xbda4bf71	-0.08044327
114	0x3da2b01d	0.07943747
115	0xbd5628f7	-0.05228516
116	0x3cf2d1e4	0.0296411
117	0xbc0b2909	-0.00849367
118	0xbd1b6a5a	-0.03794322
119	0x3cc99341	0.024606349
120	0x3da3e0bd	0.0800185
121	0x3dac4aff	0.08412742
122	0x3d3cecec	0.046124384
123	0x3d3cda27	0.046106484
124	0x3c58432e	0.013199611
125	0x3d6d2260	0.05789411
126	0xbda1ef70	-0.07906997
127	0xbcc3eb0f	-0.023915796
128	0xbc57947e	-0.013157962
129	0x3c9eeaf3	0.019399142
130	0xbd743954	-0.059624985
131	0xbb25bcfe	-0.002528965

euclidean_transformers.0.filter_net_inv.mlp_ev.0.weight f4 [33, 4]
0	0x3e668cfc	0.22514719
1	0x3e87ce02	0.2652436
2	0xbeb4a328	-0.35280728
3	0x3e1d9bfc	0.15391535
4	0x3e887fc0	0.26659966
5	0x3dcf58c8	0.101243556
6	0xbe702c94	-0.23454505
7	0xbe6536b8	-0.22384155
8	0x3e8c50d4	0.27405417
9	0x3e298910	0.16556191
10	0x3e036980	0.12833214
11	0xbec3925a	-0.38197595
12	0xbee445c6	-0.44584483
13	0x3ec87dd8	0.3915851
14	0x3cff00e0	0.031128347
15	0x3ed8164a	0.42204505
16	0xbef56e88	-0.4793589
17	0xbe6fbec0	-0.23412609
18	0xbeecef2a	-0.46276218
19	0x3eecca80	0.46248245
20	0x3d96b210	0.073581815
21	0x3e486ab4	0.19571954
22	0x3ec3c2b2	0.38234478
23	0x3cf0ebc0	0.02940929
24	0x3ddcca38	0.10780758
25	0xbeb93bac	-0.3617834
26	0x3d5ceba0	0.053935647
27	0x3eb3625a	0.35035974
28	0xbd96f9c8	-0.07371861
29	0xbeb16908	-0.34650445
30	0xbe8464bc	-0.25858104
31	0x3c6d0980	0.014467597
32	0x3ea93db6	0.33054894
33	0x3d301320	0.04298699
34	0xbe92e7fa	-0.2869261
35	0x3d2c6780	0.042090893
36	0xbe2622c4	-0.162242
37	0x3ce38980	0.027775526
38	0x3ea033a6	0.31289405
39	0xbed54e9c	-0.41661537
40	0xbe0ad5f0	-0.13558173
41	0xbe869194	-0.26282942
42	0x3ed78dc8	0.42100358
43	0xbed6fdda	-0.41990548
44	0xbdef5b48	-0.116873324
45	0xbee5c6ba	-0.4487818
46	0xbeb5a5be	-0.35478014
47	0xbe4c6a1c	-0.19962353
48	0x3dbbd360	0.09171176
49	0xbee21b06	-0.44161242
50	0xbd519110	-0.051163733
51	0xbe8ba596	-0.2727477
52	0x3eb4a742	0.35283858
53	0xbea5605c	-0.3230008
54	0xbed740e0	-0.42041683
55	0xbd4327c0	-0.04764533
56	0xbed2b150	-0.41150904
57	0xbe4505bc	-0.19240469
58	0x3e273bec	0.16331452
59	0xbecf5e94	-0.40501845
60	0xbe4ee330	-0.20203853
61	0x3e91da62	0.28486925
62	0x3ebd808e	0.37012142
63	0x3ed439b4	0.41450274
64	0x3ed8359c	0.422284
65	0x3ed13958	0.40864062
66	0xbdf4cba0	-0.11952901
67	0xbe636bc4	-0.22209078
68	0xbde22958	-0.11043042
69	0x3ddcee98	0.10787696
70	0x3d5390c0	0.051651716
71	0xbea177da	-0.31536752
72	0x3ed4d482	0.4156838
73	0xbe0bd078	-0.13653743
74	0x3ec1865c	0.3779782
75	0x3c357d80	0.011077285
76	0x3e50a248	0.20374405
77	0x3d12dac0	0.035853148
78	0x3e3f7290	0.18696046
79	0xbe9b890e	-0.30378002
80	0x3e5904d4	0.21193248
81	0xbe95cbf6	-0.29257172
82	0x3e81501a	0.25256425
83	0xbe68bdf4	-0.22728711
84	0x3e091d54	0.13390094
85	0xbef32a1c	-0.47493064
86	0xbea46c94	-0.3211409
87	0x3ed7b5cc	0.42130888
88	0x3ec2a5c6	0.380171
89	0xbee3a2be	-0.444601
90	0xbe9df9cc	-0.30854642
91	0xbeea8df4	-0.45811427
92	0x3d51a820	0.051185727
93	0xbe09c148	-0.13452637
94	0xbbb19000	-0.0054187775
95	0x3e22c404	0.15895087
96	0x3e0e53a4	0.13899094
97	0xbda39588	-0.07987505
98	0x3da34cc0	0.07973623
99	0xbed1318a	-0.40858108
100	0x3ec4879c	0.38384712
101	0xbee037d2	-0.43792588
102	0xbe861de4	-0.2619468
103	0xbe2a2e88	-0.16619313
104	0xbe955ee6	-0.29173964
105	0x3cd7d6a0	0.026347458
106	0x3e80dd9a	0.2516907
107	0xbe2f31ec	-0.17108887
108	0xbe2350cc	-0.1594879
109	0xbe8fc760	-0.280818
110	0x3e404444	0.18776041
111	0xbeb20dda	-0.34776193
112	0x3ebc3ee4	0.36766732
113	0x3de37de8	0.11107999
114	0xbec67c60	-0.38766766
115	0xbd12b310	-0.0358153
116	0x3e16549c	0.14680713
117	0x3efe784c	0.49701154
118	0xbe358134	-0.17725068
119	0xbecefdc2	-0.40427977
120	0xbe89e70a	-0.2693408
121	0x3dfb1b58	0.12261075
122	0x3eab8f90	0.33507967
123	0x3c83a340	0.016069055
124	0x3ee416da	0.44548684
125	0xbeb18e9a	-0.3467911
126	0xbefe7740	-0.49700356
127	0x3d80a5f0	0.0628165
128	0x3ea0f892	0.31439644
129	0x3eef837c	0.46780002
130	0x3ced6200	0.028977394
131	0xbd152100	-0.036408424

euclidean_transformers.0.filter_net_inv.mlp_ev.0.bias f4 [33]
0	0x3e7ee8c0	0.24893475
1	0x3e9db3c6	0.3080122
2	0xbee96960	-0.45588207
3	0xbe7af4bc	-0.24507421
4	0x3eb690e6	0.35657424
5	0xbe1357a8	-0.14388907
6	0xbecf873e	-0.4053287
7	0xbebeb572	-0.37247807
8	0xbe83e0e8	-0.25757527
9	0xbd5ae6a0	-0.053442597
10	0xbd0d2c80	-0.034466267
11	0xbed27286	-0.41103
12	0x3ef3c56a	0.47611552
13	0x3caf9260	0.021432102
14	0x3ef91aaa	0.48653156
15	0xbe35f848	-0.17770493
16	0x3ebc0766	0.36724395
17	0x3e180058	0.14843881
18	0xbee7f730	-0.45305777
19	0x3eb26d44	0.34848988
20	0x3ea4fc84	0.32223904
21	0xbebe81be	-0.3720836
22	0x3ed27e40	0.41111946
23	0xbdd1ee98	-0.10250586
24	0xbe4f66c0	-0.2025404
25	0xbe1a3150	-0.15057874
26	0xbeb262dc	-0.3484105
27	0x3ed8a9ba	0.4231699
28	0xbe2b92a8	-0.16755164
29	0xbe96c7e4	-0.2944938
30	0x3ef6b6f4	0.48186457
31	0xbefd7310	-0.49501848
32	0xbebf5f66	-0.3737747

euclidean_transformers.0.filter_net_inv.mlp_ev.mlp_ev_layer_1.0.weight f4 [132, 33]
0	0x39883a06	0.00025983172
1	0x3dd764bb	0.1051726
2	0x3c9b8659	0.01898496
3	0x3e242b39	0.16032113
4	0xbe20bb5d	-0.15696473
5	0x3de3132e	0.110876426
6	0xbbfd0b85	-0.0077223205
7	0xbdff85ea	-0.12476714
8	0x3c4e0dcc	0.012576532
9	0x3e168e5f	0.14702748
10	0x3e0d4b92	0.13798359
11	0xbe0667a3	-0.13125472
12	0xbd9d9d25	-0.076959886
13	0xbe0d41bb	-0.13794605
14	0x3e2fe491	0.17177035
15	0xbdda202a	-0.10650666
16	0x3dc903a4	0.098151475
17	0x3d92c645	0.07166723
18	0xbdaa721f	-0.08322548
19	0x3e31794d	0.17331429
20	0x3c534910	0.012895837
21	0xbe2c8ad6	-0.16849837
22	0x3c84b92d	0.01620158
23	0x3ce18de8	0.027533486
24	0x3dc9dae1	0.09856201
25	0xbd61066f	-0.054937776
26	0x3df07d9c	0.11742708
27	0xbe139e71	-0.1441591
28	0x3d757735	0.059928138
29	0x3d8b76aa	0.06809743
30	0x3e06551e	0.13118407
31	0xbccdc0b9	-0.025116311
32	0xbdf4dcf6	-0.119562075
33	0x3e1d2c8d	0.15349026
34	0xbd9d1387	-0.0766974
35	0xbe1be72c	-0.15224904
36	0x3d6dbf0e	0.058043532
37	0xbd89109b	-0.0669262
38	0x3d726b62	0.05918444
39	0x3e2685a5	0.16261919
40	0x3da7a1bc	0.08185145
41	0x3e120608	0.14260113
42	0x3d27dfb5	0.040984828
43	0x3da54b30	0.080709815
44	0xbe27d69f	-0.16390465
45	0x3ddea62c	0.108715385
46	0x3e031ded	0.12804385
47	0x3db1c673	0.08680429
48	0xbe169904	-0.14706808
49	0xbe08e9c6	-0.13370427
50	0x3d12db56	0.035853706
51	0x3d90830f	0.070562474
52	0xbdf0cdfb	-0.11758038
53	0x3d489b64	0.048976317
54	0x3ddf2d87	0.108973555
55	0xbe2a1a74	-0.16611654
56	0xbbe53323	-0.0069946214
57	0xbd0317d8	-0.03200516
58	0xbe1589d2	-0.14603356
59	0x3dab20ab	0.0835584
60	0xbe032ad7	-0.12809311
61	0x3e1cf0ac	0.15326184
62	0x3e13dfd3	0.14440851
63	0xbe0479e8	-0.12937129
64	0x3da026e7	0.0781992
65	0x3ca28bc9	0.019842045
66	0xbda35558	-0.079752624
67	0xbd890b83	-0.06691649
68	0xbd2c0e86	-0.042006038
69	0x3c0b2a8f	0.0084940335
70	0xbcc2d990	-0.023785383
71	0xbd6da37c	-0.05801724
72	0xbe04949b	-0.12947313
73	0x3e13706f	0.14398359
74	0xbde3e1fe	-0.11127089
75	0xbd75bd7e	-0.059995167
76	0xbe109525	-0.14119394
77	0x3e2e8f6d	0.170469
78	0xbe1bb0ee	-0.15204212
79	0x3e0a4f21	0.13506748
80	0xbd9460fa	-0.07245059
81	0xba579f54	-0.0008225341
82	0x3e0b2620	0.13588762
83	0xbe277101	-0.16351701
84	0xbca5daef	-0.020245997
85	0x3ddc7d18	0.10766047
86	0xbda29735	-0.07938997
87	0x3cb82045	0.022476325
88	0xbdb9f6b4	-0.09080258
89	0xbc9d1a2a	-0.019177515
90	0x3dc33669	0.09531862
91	0x3d61cca4	0.0551268
92	0x3d52f15f	0.05149972
93	0x3caba13f	0.020950912
94	0x3d3dcf63	0.046340358
95	0x3e01b161	0.12665321
96	0xbd59a9cd	-0.05314045
97	0xbd44da44	-0.048059717
98	0x3deea332	0.11652221
99	0xbe09625d	-0.13416429
100	0xbe181c37	-0.14854513
101	0xbddd5f09	-0.10809142
102	0x3d5c361d	0.053762544
103	0x3d0d8174	0.034547284
104	0x3d17cc61	0.037060145
105	0xbda88a58	-0.08229512
106	0x3e27a073	0.163698
107	0x3c90e1d0	0.0176858
108	0x3dcb7ab7	0.099355154
109	0x3dbc89d9	0.0920598
110	0x3e245d3c	0.16051191
111	0x3dab3cd0	0.083612084
112	0xbe203569	-0.15645374
113	0xbe010027	-0.12597714
114	0xbe1bc989	-0.15213598
115	0x3c52ae38	0.01285892
116	0xbd9e97bb	-0.07743784
117	0xbddcadb2	-0.10775317
118	0xbde306cf	-0.11085283
119	0xbd313677	-0.043264832
120	0x3db84970	0.08998382
121	0x3e231ec8	0.15929711
122	0xbe2309c2	-0.15921691
123	0xbd8c780a	-0.06858833
124	0x3e13db47	0.14439116
125	0x3de95fa9	0.11395199
126	0xbcd9a299	-0.02656679
127	0x3e0e6cfd	0.13908763
128	0xbcee3efb	-0.029082766
129	0xbca4dbc8	-0.020124331
130	0x3d6d51a6	0.057939194
131	0x3c706afc	0.014673945
132	0x3d76c17f	0.060243126
133	0x3df135ad	0.11777816
134	0x3e0497f2	0.12948588
135	0x3e2a133a	0.16608897
136	0xbdc5f754	-0.09666315
137	0xbe0bc64e	-0.13649866
138	0x3d30df25	0.043181557
139	0xbd84c936	-0.064836904
140	0xbe00474b	-0.12527196
141	0x3e2ca4ca	0.16859737
142	0x3c056df4	0.008143891
143	0xbc8859d6	-0.0166444
144	0xbd8cdbb0	-0.068778396
145	0x3d086ddb	0.03330789
146	0xbe057bf2	-0.13035563
147	0x3d421f41	0.047393087
148	0xbdd49bad	-0.10381255
149	0xbdb747bd	-0.0894923
150	0xbdd4dece	-0.10394059
151	0xbd869752	-0.06571831
152	0xbe1748e9	-0.14773907
153	0xbd9d2524	-0.076731
154	0xbe192007	-0.14953624
155	0xbd267bbd	-0.04064535
156	0x3e19acb8	0.15007293
157	0xbd036bdc	-0.032085285
158	0x3d1f7dce	0.038938336
159	0xbd0ccc37	-0.034374442
160	0xbe2f551c	-0.1712231
161	0xbd94bc12	-0.07262434
162	0xbd6b8bc3	-0.057506334
163	0x3d474f61	0.048659686
164	0xbd1a0cf8	-0.037610024
165	0x3ce2ddca	0.027693648
166	0x3d806000	0.062683105
167	0x3e03e372	0.12879732
168	0x3bad8c9f	0.0052963044
169	0x3c5911f1	0.0132489065
170	0x3e30724c	0.17231101
171	0x3e31e7ec	0.17373627
172	0xbd24a2e1	-0.040194396
173	0xbdf4dde0	-0.11956382
174	0x3e16ad52	0.14714554
175	0x3c4e3f68	0.012588359
176	0x3e062b51	0.13102461
177	0x3c67d4e8	0.014149882
178	0x3d3329f6	0.04374119
179	0x3c53c317	0.012924931
180	0xbdcda3dc	-0.10041019
181	0x3dc12b38	0.094320714
182	0xbdc4c6e6	-0.09608249
183	0xbd8c8fff	-0.068634026
184	0x3d92b707	0.07163816
185	0x3e1cfff7	0.15332018
186	0x3e26be2c	0.16283482
187	0xbdb27abb	-0.08714815
188	0x3df4b6df	0.119489424
189	0x3e11aff8	0.14227283
190	0xbdf6f280	-0.12057972
191	0xbe1b3bc7	-0.15159522
192	0x3e0ed085	0.13946731
193	0x3e0ad80b	0.13558976
194	0x3e1a62b6	0.15076718
195	0x3da88c1b	0.08229848
196	0x3dbe8955	0.09303538
197	0x3e030534	0.12794954
198	0x3dd78fd1	0.10525478
199	0x3e233f6c	0.15942162
200	0xbdd20fae	-0.10256897
201	0x3e16e5c1	0.14736082
202	0xbc6cafa5	-0.014446174
203	0x3c8cd566	0.0171916
204	0x3d914bea	0.070945576
205	0xbd6a6fee	-0.05723565
206	0xbb7e7383	-0.0038826175
207	0xbdc1082a	-0.09425385
208	0x3c268c52	0.010165291
209	0xbd0cc81a	-0.03437052
210	0x3d8982b9	0.067143865
211	0x3e2fc491	0.17164828
212	0x3e159ab1	0.14609791
213	0x3c40c03a	0.01176458
214	0xbe223bba	-0.15843096
215	0x3e2392ae	0.15973923
216	0x3acbf9ba	0.0015562095
217	0xbd1b01da	-0.037843563
218	0x3da7ef9f	0.08200001
219	0x3d44172b	0.047873657
220	0x3d94846f	0.07251822
221	0xbd561163	-0.052262675
222	0x3ddf58c9	0.10905606
223	0x3ccd976c	0.025096618
224	0xbdfa8efe	-0.12234305
225	0x3e03c116	0.12866625
226	0xbd7d09a0	-0.061776757
227	0x3e0f72e5	0.14008673
228	0x3d8f7854	0.07005373
229	0x3d6c03d5	0.057620842
230	0x3d5f0c2c	0.054454967
231	0x3d59e2ca	0.0531948
232	0x3e199ba7	0.15000783
233	0x3ce2333d	0.027612323
234	0x3dcefe38	0.10107082
235	0xbd3cdf07	-0.046111133
236	0x3d7913d7	0.060809936
237	0x3d4e5351	0.050372425
238	0xbd93c182	-0.07214643
239	0x3dc4b496	0.096047565
240	0x3dfda037	0.12384074
241	0x3de43d0f	0.111444585
242	0x3e29442e	0.16529915
243	0xbe0fa425	-0.1402746
244	0xbd738fd0	-0.059463322
245	0x3dbf37d3	0.093368195
246	0xbcd17a0f	-0.025570897
247	0xbd465c2c	-0.048427746
248	0x3d2454df	0.040120002
249	0x3e0e1a2e	0.13877174
250	0x3dbbb34f	0.0916506
251	0xbd19be0c	-0.03753476
252	0x3df53b2f	0.11974179
253	0xbe14ddaf	-0.1453769
254	0x3e03a350	0.12855268
255	0x3d8b1d7e	0.067927346

euclidean_transformers.0.filter_net_inv.mlp_ev.mlp_ev_layer_1.0.bias f4 [132]
0	0xbe14067b	-0.14455597
1	0x3dc4d8dc	0.09611675
2	0x3d24c220	0.040224195
3	0x3dcaff7b	0.0991201
4	0x3dabb9ca	0.08385046
5	0x3cfc0fc2	0.030769233
6	0x3e070560	0.13185644
7	0xbd8a3df5	-0.067500986
8	0x3c66783a	0.01406675
9	0x3e32136b	0.1739022
10	0x3bc765d6	0.006085138
11	0x3de7cfd9	0.11318941
12	0x3e00c0f4	0.12573606
13	0x3d780aeb	0.060557287
14	0x3d50009e	0.05078184
15	0x3d4c8313	0.04992969
16	0x3d32ce54	0.0436538
17	0x3dd92db5	0.10604421
18	0x3da667a5	0.081252374
19	0x3db66d24	0.08907536
20	0xbe1698c2	-0.1470671
21	0x3cc48cf9	0.023993002
22	0xbc9e861e	-0.019351061
23	0xbddb9c5c	-0.107231826
24	0x3d34ac3d	0.04410957
25	0x3db26668	0.08710939
26	0xbd81de23	-0.06341197
27	0xbd1d932b	-0.03847043
28	0xbde475cf	-0.11155283
29	0x3cb6706d	0.022270406
30	0x3dcab856	0.098984405
31	0xbbf745c6	-0.0075461594
32	0x3d91abc9	0.071128435
33	0x3da0f9d1	0.07860149
34	0xbb9e7d80	-0.004836738
35	0xbd9db9d9	-0.07701463
36	0xbd8ee8b4	-0.06977978
37	0x3d03c107	0.032166507
38	0x3dea0791	0.114272244
39	0x3dee6cfb	0.1164188
40	0xbcfe9faf	-0.031082002
41	0x3dccf5a1	0.100077875
42	0xbe062e45	-0.13103588
43	0xbdcd0781	-0.10011197
44	0xbe25d7bb	-0.16195576
45	0xbdcce0f5	-0.10003845
46	0x3deb6867	0.114945225
47	0xbd43c386	-0.047793888
48	0xbccec4d7	-0.025240345
49	0x3ca69496	0.020334523
50	0xbc90e915	-0.017689267
51	0xbd7ea140	-0.0621655
52	0x3d927c47	0.0715261
53	0x3da1c0eb	0.07898124
54	0x3cfb1af7	0.030652506
55	0xbcd64d24	-0.02615983
56	0xbde753d1	-0.112952836
57	0xbd91da3c	-0.07121703
58	0xbc66843d	-0.014069614
59	0x3ddd4d6f	0.10805785
60	0x3db457b4	0.088057905
61	0x3e27ce87	0.16387378
62	0x3dd31127	0.10306006
63	0xbdf0a070	-0.11749351
64	0xbdcdb064	-0.100434095
65	0xbc56d339	-0.013111883
66	0xbd56485a	-0.052315094
67	0x3e11557e	0.14192769
68	0xbdcfeddf	-0.10152792
69	0x3cf02aaa	0.029317219
70	0x3c9f2f0f	0.019431619
71	0x3e0c83fc	0.13722223
72	0x3c842c4d	0.016134406
73	0x3c609faf	0.013709947
74	0x3d1d1206	0.038347267
75	0xbcccf524	-0.025019236
76	0x3d2e3475	0.042530496
77	0xbe2aac22	-0.16667226
78	0x3d58d330	0.05293578
79	0x3d54d538	0.051961154
80	0xbe2b740b	-0.16743486
81	0x3e2ed73d	0.17074294
82	0x3d732da2	0.05936969
83	0x3ba28943	0.0049602105
84	0xbcf3bcb3	-0.029753065
85	0x3dfcc5ef	0.1234244
86	0x3da35009	0.0797425
87	0x3d5769e3	0.052591216
88	0x3e09c6ef	0.13454793
89	0x3cc0a88e	0.023517873
90	0xbd5e2c4f	-0.054241475
91	0xbda8342a	-0.082130745
92	0x3d0448c9	0.032295976
93	0xbd0e8354	-0.034793213
94	0xbdf6294a	-0.12019594
95	0xbe0161c9	-0.12634958
96	0xbdc0cf25	-0.0941451
97	0xbde9a038	-0.114075124
98	0x3c7a161c	0.01526406
99	0xbdade836	-0.08491556
100	0xbcfe4bf4	-0.031042077
101	0x3e2e4fed	0.17022677
102	0xbdad85a9	-0.08472759
103	0x3d5200b5	0.051270206
104	0xbdac893c	-0.08424613
105	0xbdf8e8b7	-0.12153762
106	0x3e28e992	0.1649535
107	0xbe082ba6	-0.132979
108	0xbba718a0	-0.005099371
109	0x3d950591	0.07276452
110	0x3d913c7c	0.070916146
111	0x3d73917c	0.059464917
112	0x3dec59ed	0.115405895
113	0xbe05c794	-0.13064414
114	0xbe01b716	-0.12667498
115	0xbd81fe91	-0.06347383
116	0x3e0360d2	0.12829903
117	0xbe252055	-0.16125615
118	0xbe1984f0	-0.14992118
119	0x3dcc37be	0.099715695
120	0xbe2da850	-0.16958737
121	0x3bd2289e	0.0064135334
122	0xbdf677d2	-0.12034573
123	0x3da64098	0.08117789
124	0xbe2f9896	-0.1714805
125	0x3dead992	0.114672795
126	0xbd989d6a	-0.07451899
127	0x3d5c7622	0.053823598
128	0x3e21d579	0.1580409
129	0xbe16480e	-0.14675924
130	0x3e1bf1a7	0.15228902
131	0x3e0716ac	0.13192242

euclidean_transformers.0.filter_net_ev.mlp_rbf.0.weight f4 [132, 32]
0	0x3e20859b	0.15675966
1	0x3b37d19a	0.0028048516
2	0xbd36a4a9	-0.044590626
3	0xbe1b3e75	-0.15160544
4	0xbca4cc60	-0.020116985
5	0xbdb24bb0	-0.087058425
6	0xbe122cd6	-0.14274916
7	0x3bb5246a	0.0055280225
8	0xbcb403df	-0.021974502
9	0xbd0a6c0f	-0.03379446
10	0xbe2822e9	-0.16419567
11	0xbe0d8b41	-0.13822652
12	0x3c6070d8	0.013698779
13	0xbdf8baca	-0.12145002
14	0x3df05aaa	0.11736043
15	0xba703be7	-0.00091641996
16	0xbde9d5ed	-0.11417756
17	0x3df86ecc	0.12130508
18	0xbde4a92c	-0.111650795
19	0x3dad7aa3	0.08470657
20	0xbdaafdb9	-0.08349175
21	0xbe0a46f1	-0.13503624
22	0xbe254756	-0.16140494
23	0xbcb9efdd	-0.022697384
24	0xbcfc8dde	-0.030829366
25	0xbd105f74	-0.03524728
26	0xbe0c3dcd	-0.1369545
27	0x3e2c161c	0.16805309
28	0xbc62f505	-0.0138523625
29	0x3d881bf8	0.066459596
30	0xbde28af7	-0.11061662
31	0x3d89260a	0.066967085
32	0x3e207ee6	0.15673408
33	0xbd44e714	-0.048071936
34	0xbd32fa27	-0.043695595
35	0xbd9b1d2c	-0.075739235
36	0x3d92eb79	0.07173819
37	0x3e329ac7	0.17441855
38	0x3dd9480c	0.10609445
39	0xbe32e6f2	-0.17470911
40	0xbda1a4f0	-0.078927875
41	0xbdc134ce	-0.094339
42	0x3d88bee9	0.06677038
43	0xbde32616	-0.11091249
44	0xbe255bf7	-0.16148363
45	0x3d23611f	0.039887544
46	0xbd8e94da	-0.06961985
47	0x3d907f54	0.07055536
48	0xbdd9ca5d	-0.10634301
49	0x3e24ce88	0.1609441
50	0xbcf9a685	-0.03047491
51	0xbdd74c2b	-0.10512575
52	0x3e195ffb	0.1497802
53	0x3e1331cc	0.14374465
54	0xbb731439	-0.003709091
55	0xbd5c950f	-0.05385309
56	0xbdf697cc	-0.12040672
57	0xbe0b4cd5	-0.13603528
58	0x3d5b356e	0.05351775
59	0xbe1a42f5	-0.15064605
60	0x3e043bdf	0.12913464
61	0xbdd22643	-0.10261204
62	0x3e2034f2	0.15645197
63	0x3da1abad	0.07894073
64	0xbdc1e4c3	-0.09467461
65	0xbe214b68	-0.15751421
66	0x3cadb53d	0.021204585
67	0x3ddf284e	0.108963594
68	0x3d985ccb	0.07439574
69	0xbe120833	-0.1426094
70	0xbe19f3d4	-0.1503442
71	0x3d9fa074	0.07794276
72	0xbe33203c	-0.17492765
73	0x3dafd410	0.085853696
74	0x3bc125db	0.0058944053
75	0xbdd7188f	-0.10502731
76	0x3d0bf5b2	0.03416986
77	0x3db12cd3	0.08651128
78	0xbdce6d7b	-0.100794755
79	0x3d270ef2	0.040785737
80	0xbe103d1c	-0.14085811
81	0xbdf07054	-0.11740175
82	0xbd4befa9	-0.049789105
83	0x3bbcd6c5	0.005762907
84	0x3d9f0f7c	0.07766625
85	0x3d527c4c	0.05138807
86	0x3d90efdf	0.07077002
87	0xbcaf0bd5	-0.021367947
88	0xbd5cbc05	-0.053890247
89	0xbe2f706e	-0.17132732
90	0x3de206d3	0.11036458
91	0xbd62ca8c	-0.055368945
92	0xbe0a5bbb	-0.13511555
93	0xbddac24e	-0.10681592
94	0xbe04f54c	-0.12984198
95	0xbcbf19d8	-0.023327753
96	0xbd9de6d7	-0.07710045
97	0xbddf31f3	-0.10898199
98	0xbe2fba14	-0.17160827
99	0xbe12819d	-0.14307256
100	0xbd89f39e	-0.067359194
101	0x3e33863d	0.17531677
102	0xbcabff02	-0.02099562
103	0xbe2303d8	-0.15919435
104	0x3d7e4f96	0.062087618
105	0xbe31b60c	-0.17354602
106	0x3d46f23a	0.04857085
107	0xbacd4997	-0.001566219
108	0xbe09ecad	-0.13469191
109	0xbda1086d	-0.07862935
110	0xbda10546	-0.07862334
111	0xbe05dd00	-0.13072586
112	0xbdd5bf59	-0.10436887
113	0x3dd48507	0.103769355
114	0x3e1db67e	0.15401646
115	0xbe2a5ee7	-0.16637765
116	0x3e2dff24	0.1699186
117	0x3da0e9fc	0.07857129
118	0x3bd67069	0.006544162
119	0xbdf11097	-0.117707424
120	0x3cff3089	0.031151073
121	0x3e1ca17a	0.15295973
122	0xbd891dbb	-0.06695124
123	0x3e34789f	0.17624138
124	0x3bd86d2d	0.0066048116
125	0xbdc95092	-0.09829821
126	0x3e2e0275	0.16993125
127	0x3c67cde7	0.014148212
128	0x3d3bded7	0.045866814
129	0xbe1cabed	-0.1529996
130	0xbc292190	-0.010322943
131	0x3e275e47	0.16344558
132	0x3def9fdb	0.11700412
133	0x3d297451	0.041370694
134	0xbd9d0c8b	-0.07668408
135	0x3cff3d70	0.031157225
136	0x3d50b782	0.050956257
137	0xbdecb47d	-0.11557863
138	0x3d40a58f	0.04703289
139	0xbe12034f	-0.14259075
140	0x3e3460e7	0.1761509
141	0x3dc5cfb2	0.09658755
142	0xbcb16b3c	-0.021657579
143	0xbdf04f68	-0.117338955
144	0x3dd5b4c9	0.10434873
145	0xbdcd1d68	-0.100153744
146	0x3e2b037e	0.16700551
147	0x3bee6bb0	0.007276021
148	0xbd84909b	-0.06472894
149	0xbdea9c17	-0.11455553
150	0xbcc75df3	-0.02433679
151	0x3dab543b	0.08365675
152	0x3e1315f2	0.1436384
153	0xbd5f216f	-0.054475244
154	0x3e26f076	0.16302666
155	0xbd929105	-0.071565665
156	0xbe058a6b	-0.13041084
157	0xbd25e7ba	-0.040504195
158	0x3c256d82	0.0100969095
159	0x3dae6fa6	0.08517389
160	0x3d1888de	0.0372399
161	0x3e22a275	0.15882285
162	0x3dbfac95	0.09359089
163	0x3deeb1fb	0.11655041
164	0x3e029c17	0.12754856
165	0xbdff6cc0	-0.12471914
166	0xbe2da377	-0.16956888
167	0xbd512c34	-0.051067546
168	0xbe310693	-0.17287664
169	0xbdd7f078	-0.10543913
170	0x3db30d6f	0.08742797
171	0x3e0a7914	0.1352275
172	0xbc47190d	-0.012151969
173	0x3d5b6890	0.053566515
174	0xbd990b81	-0.07472897
175	0xbe00f479	-0.12593259
176	0x3d927e31	0.07152975
177	0xbde69ed4	-0.11260763
178	0xbe049071	-0.12945725
179	0xbd02aaec	-0.031901285
180	0x3e1dcb22	0.1540952
181	0xbdc356a0	-0.09538007
182	0xbc23fa5e	-0.010008423
183	0xbe0fadba	-0.14031115
184	0x3dbd86ed	0.09254251
185	0x3dbfc7c0	0.09364271
186	0x3e138ac7	0.14408408
187	0xbe2196ab	-0.15780132
188	0xbe2a89ed	-0.16654177
189	0xbde2010b	-0.11035355
190	0xbe00e66d	-0.125879
191	0x3c4111e1	0.011784048
192	0xbdcafad3	-0.09911122
193	0x3d3843ef	0.04498666
194	0x3e27fdc4	0.16405398
195	0x3d957359	0.072973914
196	0x3e09a15e	0.13440463
197	0x3dc9dc9c	0.09856531
198	0xbd8d6332	-0.06903686
199	0x3ceefe5e	0.029174026
200	0x3d8ba1f9	0.06818003
201	0x3db16d1d	0.0866339
202	0xbe2ccc98	-0.16874921
203	0xbe0da9ab	-0.13834254
204	0xbdb46e4d	-0.08810101
205	0xbe116d51	-0.14201857
206	0x3d8857dd	0.066573836
207	0x3dea0906	0.11427502
208	0xbd336b3f	-0.04380345
209	0x3e1fa4dc	0.15590233
210	0xbe33876c	-0.17532128
211	0x3e0b6078	0.13611019
212	0x3d2dc0ba	0.042420126
213	0xbdd8bb11	-0.10582555
214	0xbd86b018	-0.06576556
215	0x3da29ad8	0.0793969
216	0xbe0b3c95	-0.13597329
217	0x3e213066	0.15741119
218	0xbe20b0c1	-0.15692426
219	0x3e128bf5	0.14311202
220	0x3bfc739d	0.007704212
221	0xbd8e18eb	-0.069383465
222	0x3dfe6510	0.1242162
223	0xbd1469aa	-0.03623358
224	0x3e138c50	0.14408994
225	0x3debcc09	0.11513526
226	0xbd8d62a4	-0.0690358
227	0x3e27fddd	0.16405435
228	0x3c141b55	0.00903972
229	0x3c713813	0.014722842
230	0xb7043a9e	-7.881461e-06
231	0x3ca623f1	0.02028081
232	0xbdb65435	-0.0890278
233	0x3d9d9b3c	0.07695624
234	0x3df3f094	0.11911121
235	0xbd33bb1b	-0.04387961
236	0xbe1b7747	-0.1518222
237	0x3d4f73bd	0.050647486
238	0x3d8e09a4	0.069354326
239	0xbe066637	-0.1312493
240	0xbde30cf9	-0.11086459
241	0xbddb4a42	-0.10707523
242	0xbd254205	-0.040346164
243	0x3df8247c	0.12116334
244	0x3d00bb87	0.03142884
245	0x3d8515da	0.064983085
246	0xbdf4cd84	-0.119532615
247	0x3de9248d	0.11383925
248	0x3e0d24f4	0.13783628
249	0xbced63c3	-0.028978234
250	0x3e049802	0.12948611
251	0x3cff593d	0.031170482
252	0x3e32dc53	0.1746686
253	0xbbed811b	-0.0072480566
254	0xbd115a09	-0.035486255
255	0x3e1ce6de	0.15322444
