example/torchkrates.pth (torch, 994171 bytes, 66 tensors)

inv_feature_embedding.embedding.weight f4 [132, 118]
00000000: 2a24 903d 047c 9c3d 4aac b0bc 6d30 ad3d
00000010: ce3b a5bc 682d 983c bf93 37bd f371 5d3d
00000020: 5633 a63d 4950 8abd 6ddf a33d b124 8d3c
00000030: 554a 8b3d 0b44 4c3c 41d1 353d 3ef4 54bc
00000040: 8356 913d 87ef 5e3c b407 30bd 483a c03c
00000050: 8fba 2dbd 0ae1 30bc 2826 19bd b222 7a3d
00000060: a7d2 94bd fad4 2dbd d7f2 d4bc 60b8 62bd
00000070: ed5a 0e3c f535 babd 3844 aa3d 4327 a0bd
00000080: 9c8d 913d 4201 7b3c f7de f4bc 3e02 693d
00000090: a010 6b3c 0c54 983d 30e2 243c 78d5 edbc
000000a0: aa9f ca3c 7e81 ccbc 0fb1 1e3d b953 a83d
000000b0: a7f7 593d efd7 24bd ecaa 593d 3aef 863c
000000c0: ee7c 3f3d 10d3 65bd 8ea1 babd 17af 11bd
000000d0: 119c 90bd 00b3 9a3d e536 d93c b82f 1c3d
000000e0: e780 ee3c 0be7 d1ba 4b8c 933d abf4 85bd
000000f0: baee bd3b 8bae 80bd f889 e83c f6da 01bd
00000100: 4314 e73c 171e 9dbc 485e 9c3d 117d 5fbd
00000110: d9e1 60bd 52e5 60bd 4493 a93d f550 fb3c
00000120: aa6a b53d a597 9bbd 8600 bbbd 7e80 93bd
00000130: 2ba6 7dbd 38ba 183d cb04 073d 40a8 9c3d
00000140: 26ba 42bd 9086 80bd 4e10 483d 8e69 18bd
00000150: e5d9 643d e7f4 b2bc 29b3 573d 117c 92bd
00000160: 7549 3ebd fcea e53c 056e 9f3c f345 c0bc
00000170: 22c2 603d bc2a 803d 38b8 88bd e44d 49bd
00000180: 13a2 ac3d 3578 febc 33ad 05bd 966c b6bd
00000190: 6cef 57bd b762 bc3c ce14 47bc 9dda 88bd
000001a0: 1c84 0d3b acc8 80bd 8bf3 9fbd 0ca3 4fbd
000001b0: c701 a5bd d817 70bd be75 bc3d ea6f 8e3c
000001c0: d964 e83c a8d7 afbd e1a5 77bd a404 fbbc
000001d0: 8bd9 6b3c 12e5 a5bd d977 22bd 06bd 61bd
000001e0: f5c0 8539 d74e 0cbd 8a08 d1bb 1583 7fbd
000001f0: 9a68 81bd 55fb 5bbd b611 01bd 58ce 94bd
00000200: 6e14 9e3d 2aab 95bc b936 a23d 91f9 ea3c
00000210: 56a6 9fbd d178 823d 0b7f cfbc 2c8a 10bd
00000220: 0a7f 9cbd ca6e bbbd 16c4 d73c 71bc a4bc
00000230: 11cd 123d 03b9 9abd 10f9 8b3d d364 8abd
00000240: 0e38 82bc 1184 9d3c 65a9 423d 8734 983d
00000250: 1abf ab3d 167e 95bd 80ca bd3c bb2f 22bd
00000260: 8e48 25bc 971d 8dbd 3fba ab3d d85f 8abd
00000270: 2c86 493d 3384 043d 800f f53c 2bdc 4bbd
00000280: 335e ab3d aeb8 a53c 1c06 423c 6e25 a6bd
00000290: dd49 1e3d 8045 62bc 64be 2cbd bbf0 a13d
000002a0: 2822 a83c 5a9f 50bd 35d9 3ebd 960e 90bb
000002b0: 318a 523d f9b4 c0bc 2925 57bd c01f 01bd
000002c0: 49d9 8cbd 7679 063d c2ee 913d 437e b1bd
000002d0: f725 af3c 37ca 423d 2cbf 883c 7148 06bd
000002e0: aece 443d 6327 463d eafe 0c3d 8284 84bc
000002f0: 21b2 c7bc 265b 213c 9338 85bc a2bb e0bc
00000300: 2806 713d 9806 a23d 8f50 15bc 30d9 a8bc
00000310: a512 b03a ba1c b4bb 704d b53c 7a55 d33c
00000320: ab3c abbd ef26 0bbd 0fc5 9e3d 72e3 123d
00000330: 0b09 96bb 0956 63bd 15b1 66bd d9e1 a8bd
00000340: d0d1 f5bc a8ac fe3c 226d 703d 4b17 2e3d
00000350: 39a7 a6bd 10c1 62bd b007 6ebc c260 b63d
00000360: b62e 5a3c 804c c3bc 9eff 1b3d 359e 0fbd
00000370: 190f 74bd bb9b 893d 0574 2bbd cf2d 97bc
00000380: da8d bbbd 305c 7c3d f3d6 8e3d e86b 093d
00000390: ad75 83bd 4812 babd 831f 99bd f196 8c3d
000003a0: 3f08 353d e5a6 9e3d c388 453d 97dd be3c
000003b0: f451 6cba 8961 8fbd c987 a1bd 3f58 b0bd
000003c0: 665b 1a3d c520 39bd 85c5 97bc 1601 59bd
000003d0: ce6b 89bc 53b2 84bd b861 76bd 9627 fa3c
000003e0: 4920 e0bc acc7 683d dbee f1bc 584d 8abd
000003f0: 080f 85bc 4dc8 36bd 9eb8 e6bc b57b b3bd
0.07038148 0.076408416 -0.021566529 0.08456502 -0.020170119 0.018576339 -0.044818636 0.05406375
0.0811526 -0.067535944 0.080015995 0.01722941 0.06801287 0.012467395 0.044389013 -0.012997685
0.07096579 0.013606912 -0.042976096 0.02346529 -0.042414244 -0.010795841 -0.037389904 0.061068244
-0.07266741 -0.04243944 -0.025994701 -0.055351615 0.008688671 -0.09092323 0.08313793 -0.078199886
0.07107088 0.015320124 -0.029891474 0.056886904 0.014347225 0.07437906 0.010063693 -0.029032454
0.024734337 -0.02496409 0.038743075 0.08219094 0.053214695 -0.040244993 0.05314152 0.016471494
0.04675 -0.056109488 -0.09112845 -0.03556737 -0.07061017 0.07553673 0.026515434 0.038131446
0.0291142 -0.0016014291 0.07204493 -0.06540807 0.0057962807 -0.062832914 0.028386101 -0.031702958
0.028207904 -0.019179387 0.0763517 -0.054562632 -0.054902885 -0.054906197 0.08280042 0.030678252
0.08858235 -0.07597283 -0.09130959 -0.07202242 -0.06192605 0.037286967 0.032963555 0.07649279
-0.047540806 -0.06275666 0.048843674 -0.03721004 0.055871863 -0.021845294 0.052661095 -0.0715257
-0.046456773 0.02806615 0.019461641 -0.023470854 0.05487264 0.06258151 -0.06675762 -0.049146548
0.08429351 -0.031063179 -0.03263588 -0.0890743 -0.052718565 0.02299629 -0.012150956 -0.06682322
0.0021593636 -0.06288275 -0.07810124 -0.050692603 -0.080569796 -0.05861649 0.09202145 0.01738735
0.0283684 -0.08586055 -0.06046093 -0.030641861 0.014395128 -0.08100332 -0.039665077 -0.055111907
0.000255115 -0.034254875 -0.0063791918 -0.06238087 -0.06318779 -0.053706486 -0.03151103 -0.072659194
0.077187404 -0.018270094 0.07920594 0.028683456 -0.07795398 0.063707 -0.025329133 -0.03528802
-0.07641418 -0.09151991 0.026338618 -0.020109387 0.035840098 -0.075548194 0.06834614 -0.06757512
-0.01589587 0.019228013 0.04752483 0.07431894 0.08386059 -0.072994396 0.023167849 -0.0395963
-0.010088099 -0.068904094 0.08385133 -0.06756562 0.049200222 0.032352637 0.029914618 -0.049770515
0.083675765 0.020229664 0.011842277 -0.08112608 0.03864466 -0.013810515 -0.04217376 0.07907244
0.0205241 -0.05093322 -0.046593864 -0.00439627 0.05140132 -0.023523794 -0.052525673 -0.03152442
-0.06877381 0.032830678 0.071256176 -0.08666661 0.021380408 0.04755613 0.01669272 -0.03278393
0.048048668 0.048377406 0.034422792 -0.016176466 -0.02437693 0.009848392 -0.016262328 -0.02743322
0.05884376 0.07911414 -0.009113445 -0.020611376 0.0013433291 -0.0054965885 0.022131652 0.025797594
-0.08361181 -0.033972677 0.0775243 0.03586144 -0.0045787147 -0.05550197 -0.056321222 -0.08246202
-0.030007273 0.031088188 0.058697827 0.042502683 -0.08137364 -0.0553599 -0.0145282 0.08905174
0.013316801 -0.023840189 0.038085572 -0.035062987 -0.05958471 0.06719156 -0.04185869 -0.01845446
-0.091579154 0.061611354 0.06974592 0.033550173 -0.06418929 -0.09085518 -0.074767135 0.06864727
0.044197317 0.07746676 0.04822613 0.023299022 -0.00090148975 -0.07001025 -0.07887227 -0.086105816
0.03768482 -0.045197267 -0.018526802 -0.05297955 -0.016775038 -0.06479325 -0.060151786 0.030536454
-0.027359145 0.056831047 -0.02953284 -0.067530334 -0.016242519 -0.044624615 -0.028164204 -0.087638296

spin_embedding.Wk f4 [2, 132]
00000000: eeff 9f3c cc58 d4bb 66c2 b0bd d637 0f3d
00000010: 9873 57bc 90c4 883d 08c5 ebbc 9ea0 5f3c
00000020: a675 48bd 8589 3ebd 4fba a13d 8c3c adbd
00000030: b2dd 6e3d 1c09 23bd 9943 a6bd ddfd 3dbd
00000040: 2891 d5bc b5d0 673d acf6 9e3d 7f53 aa3d
00000050: 721d 48bd 3617 f83c 1abc 673b 01cb 9dbc
00000060: 42e3 a2bb 854a 2abd 667f 78bd 8bef 7b3d
00000070: fe9a 80bd 0b95 383d 25fb 44bd 9d64 afbc
00000080: 4653 e4bc 6ee4 963d 383f 9dbd 52a1 a0b9
00000090: bb86 2bbd 08d8 903d 08c0 383b 2d90 453b
000000a0: 4146 73bd 82f2 833d 8e92 563d d288 6d3d
000000b0: 23ad 50bd 09f7 87bd f9a4 813c a884 cabc
000000c0: e604 b2bc 518e 5f3d 47cc 04bc 9b07 4b3d
000000d0: 04e5 8cbd c3ed cc3c fe16 90bd 0a5f f7bc
000000e0: 37c7 273d 45ec 69bd a40b 433d f790 523d
000000f0: 454b 023d bdc4 76bc 12b8 6d3c d2de 473c
00000100: 86ed f1bc e417 8fbd cdbb 91bb e785 393d
00000110: 65ad 1fbd ae0d f73c ee37 e6bc e735 05bd
00000120: 6f3f 87bd 0dbb a5bd f961 08bd b97f f8bc
00000130: 42b2 80bd a561 b13d 287b 99bd 4295 373d
00000140: ff4c 7d3d 75a7 993b 25f1 853d c797 0dbd
00000150: 0565 ab3d 52f7 dd3c bc94 3abc 45b8 a4bd
00000160: ece0 823c 49dc a4bd 9e79 103d 629a 2cbd
00000170: 6ea2 4fbd 26dd 48b9 7ab0 75bd 9702 1a3c
00000180: d685 773c 6d77 fd3c 09bc 983d 314c 883d
00000190: 6add 6e3d 581d 38bd 1f38 05bd b9a0 a03d
000001a0: 8c5f 34bd fafa 6c3c 147e 443d 1f92 ab3d
000001b0: 1bd9 e03c c968 fe3c e623 a73d a08b 7c3d
000001c0: e953 24bd 2739 d93c 147e 403c e14d 383d
000001d0: c9a1 2ebd b258 47bc c798 f33c 7961 8a3d
000001e0: 8620 2a3d eebb 73bd 951d 883c 210d a5bc
000001f0: f4f7 a93c 612b e13c 3e75 ce3c a5a2 3cbd
00000200: af29 8b3d 8596 0e3b 23bf 863d 0b50 463d
00000210: dafd 1b3d 5f44 cfbc cb3b 763d 4ba1 42bc
00000220: 219f 313d 8091 91bc c3b0 3abc 8c17 4f3d
00000230: dc7b 6dbd fd50 37bd 3bae 95bd 2535 853d
00000240: 746c a73d b198 4f3c e208 033d 9a4f 323d
00000250: 2a40 e93c bbce 183c 3837 023d d52d 573d
00000260: c810 5bbd 1c68 10bd b912 0fbc 9d9c b0bd
00000270: 2d89 d63c b4a9 463c 5dff 02bb 7453 3a3d
00000280: 0f8f 59bd 9d22 69bc 5126 073d 674e c73c
00000290: 1800 f53c c023 e4bc 54a6 d4bc ac7f bbbc
000002a0: 8c55 96bd 8fa6 2d3d c070 9bbd c4a0 8c3d
000002b0: 246b 78bc 1abf ba3c 6594 9e3d 9431 963b
000002c0: d66d 8b3d b2ce c73c 549b 0bbd ad9c c9bc
000002d0: bb61 f5bc a8e2 983d 0ac2 37bd 79e7 09bd
000002e0: d75d 1fbc d2d1 f0bc e825 64bd 3a83 b63b
000002f0: 2acb 4c3d e2c7 f9bc 2ab6 bcbc 7d9d 82bd
00000300: c743 b73c 33bc 8b3c 901e 343d d29f 913d
00000310: 85f5 3abd 100c 803d e75e 79bd 9bea a7bc
00000320: eac4 8bbd a95f c8bc 0bbb 63bd 205e a1bd
00000330: dd20 5bbd 2942 13bd c91b 92bd 0f95 813d
00000340: 2a46 983d 9b68 6d3b 8519 54bc 1374 76bd
00000350: 6891 9a3d c715 793c b99f 1dbb ea5e bfbc
00000360: da81 993d 8434 6e3d 2278 aa3d da96 973d
00000370: e848 93bd 586e 9ebd 994d 61bd 8973 95bd
00000380: c97e 9fbc f18a debc a3cd d0bc d761 043d
00000390: 4ade b5bc 78e3 533d c3e4 d63c 180d 973d
000003a0: 4ddb 543d 30c3 09bd 4754 10bd fe56 eaba
000003b0: db73 a8bd 6eb9 4fbd 8f01 4bbd de4c 8a3d
000003c0: 62be 54bd 2f75 5cbd 11f6 83bd f362 0ebc
000003d0: 7d6a 54bd be37 9ebd 6bb3 ac3d fa81 07bd
000003e0: d37b d2bb fe1b 3b3c 2149 983b 2f08 cf3c
000003f0: 8755 1f3d ca7e 07bd 8114 0ebd b615 27bc
0.019531216 -0.006480312 -0.086308286 0.03496536 -0.013150118 0.06678116 -0.028780475 0.013649134
-0.048940323 -0.046517868 0.07896864 -0.08458814 0.058316894 -0.03980361 -0.08118362 -0.04638468
-0.026070192 0.056595523 0.07761893 0.08316707 -0.048856206 0.030284505 0.003535992 -0.019261839
-0.004970939 -0.041574974 -0.06066837 0.061507743 -0.062795624 0.045064013 -0.048091073 -0.02141028
-0.02787174 0.07367788 -0.07678074 -0.0003063777 -0.041876536 0.07072455 0.0028190631 0.003014575
-0.05939317 0.06442739 0.05238586 0.05799181 -0.050946366 -0.06638915 0.015825735 -0.024721459
-0.021730851 0.054579083 -0.008105344 0.0495678 -0.06879619 0.025015717 -0.070356354 -0.030196685
0.04096147 -0.05711009 0.047618523 0.05140778 0.031810064 -0.0150615545 0.014509218 0.012199121
-0.029532205 -0.06986979 -0.0044474364 0.045293715 -0.03898372 0.03015789 -0.028102841 -0.03252211
-0.06603896 -0.08092318 -0.03329656 -0.03033434 -0.06284 0.08661202 -0.07494193 0.044820078
0.061841007 0.004689152 0.06540135 -0.034568574 0.08368877 0.02709547 -0.011388 -0.08042959
0.015976392 -0.080498286 0.035272233 -0.04213942 -0.050692014 -0.0001915587 -0.059982754 0.0094000315
0.015107593 0.030940736 0.0745774 0.06655157 0.058316626 -0.04494986 -0.032524224 0.078431554
-0.044036433 0.014464134 0.0479718 0.0837748 0.027447274 0.031055825 0.08161144 0.061656594
-0.040119085 0.02651651 0.011748809 0.044996146 -0.04263476 -0.012167143 0.029735936 0.06756873
0.041534923 -0.059505396 0.016615668 -0.020147862 0.020748116 0.027486505 0.02520239 -0.046053547
0.0679506 0.0021757197 0.06579425 0.04841618 0.03808389 -0.025301157 0.060115617 -0.011879276
0.043364648 -0.017769575 -0.011394682 0.050559565 -0.05797945 -0.04475497 -0.073086224 0.06504277
0.08174983 0.012670682 0.031990893 0.043532945 0.028472979 0.009326632 0.031790942 0.052533943
-0.0534828 -0.035255536 -0.008732491 -0.086236216 0.026188457 0.012125421 -0.0019988634 0.045489743
-0.053114947 -0.014229444 0.032995526 0.024329377 0.029907271 -0.027849078 -0.025958218 -0.022888027
-0.073405355 0.04239517 -0.07589865 0.06866601 -0.015162263 0.022796202 0.07743148 0.004583547
0.06808059 0.024390552 -0.03408368 -0.024610842 -0.029953828 0.07465106 -0.044862784 -0.033668015
-0.009726963 -0.029396925 -0.055700213 0.0055698426 0.04999844 -0.03049082 -0.023036081 -0.06377695
0.022371186 0.017057514 0.04397446 0.071105614 -0.045644302 0.06252301 -0.06088152 -0.02049761
-0.06824668 -0.024459677 -0.0555983 -0.07879281 -0.053498138 -0.035951767 -0.07134206 0.06327259
0.07435258 0.003622568 -0.012945537 -0.06016929 0.07547265 0.015202946 -0.00240515 -0.023360688
0.0749547 0.05815555 0.08323695 0.074018195 -0.0719164 -0.0773589 -0.055005644 -0.07297427
-0.019469636 -0.027165862 -0.02548868 0.03231987 -0.022200722 0.051730603 0.026232129 0.07375544
0.051966954 -0.03363341 -0.035236623 -0.0017878709 -0.08225223 -0.05071395 -0.049562033 0.067529425
-0.051939376 -0.053822692 -0.06443418 -0.0086905835 -0.051859368 -0.07725476 0.08432659 -0.03308294
-0.0064234524 0.011420248 0.0046473895 0.025272457 0.038899925 -0.0330799 -0.034687523 -0.010198047

spin_embedding.Wv f4 [2, 132]
00000000: 7c7a 553d 669a 7ebd c445 1c3d 9758 85bd
00000010: d95d b03d df0d 513c 3957 0fbc 075f 903d
00000020: 5072 25bc 704d a5bd d7ac 703d 8fcc 033c
00000030: b5fc 95bd e508 363c 8ac1 813d f122 503d
00000040: 9f0d a1bd 6482 42bd 7436 b23d df49 9b3d
00000050: 5667 843c 2b12 a2bc 795f ac3d b37a 033c
00000060: 8541 773d a203 b2bd 55d3 77bd 0a4d e73b
00000070: a29d 50bb 5a1a 9abb 32e5 38bd cb81 e33c
00000080: f5da 9bbd 2090 76bc 1ca9 a0bd 6801 c4bc
00000090: d8c9 133d 782c 91bc 7ebd 8fbd 1a7b 92bd
000000a0: 75fd f33c fa3e 95bc 4263 9f3c 25d4 3e3d
000000b0: c74b f6bc ac59 95bd e63f 473d 78df 9f3d
000000c0: 2cd6 4ebd dc0c 81bd b6d6 0fbd 4be5 683c
000000d0: f03c 8f3c d2a2 f83c 284f a43d 3819 6bbd
000000e0: 7723 5f3d 42c4 ab3d 0bf6 27bd 62b4 66bd
000000f0: afbd a03d bc12 af3d 0887 973c fd67 29bd
00000100: aa83 e3bc 99d5 acbd 6b7e 27bc b619 39bd
00000110: 6374 a23d f73b f1bb 6727 073d bfa8 553d
00000120: 6588 203d 40a4 0e3d 9cfc 85bb 2c15 38bc
00000130: d4a5 92bd 0d88 42bd d767 393b 6bae a33d
00000140: 6dec e6ba efb8 0b3d ce68 133d ef42 94bd
00000150: eda3 9e3d fd68 003d e581 68bc 501f 55bd
00000160: 1a10 7abd f7e1 e8bc 8d07 ddbc 8f77 e0bb
00000170: 918b 683d a2b1 51bd dd31 34bd ad6a cabc
00000180: 7e9a 30bd 375d 8a3c 1958 0dbd acfb 1abd
00000190: c4ed a43d 265f aebc 7da9 8abd 6681 4c3d
000001a0: a01d 96bc 56d9 22bd bd46 903d 6b38 f8bc
000001b0: 595e 2cbd edfa da3c 3c64 a5bc 7b72 8f3d
000001c0: 2972 853d 03fa 89bb 0269 ccbc 1205 523d
000001d0: f0ee 4c3d 751d 6dbd 27c4 ca3c 5633 c83c
000001e0: a8d6 b03d 0abc 4fbd e27d 84bd 474f c2bc
000001f0: 54e3 afbd 2442 02bb 2f16 343d 86ae 38bd
00000200: 8ef4 a83d 6dfc 4b3d b5d8 5e3d eb46 61bd
00000210: a8ae 563d 8610 673d 0584 563d 1cb0 84bd
00000220: 5a6d 133d 7166 a13c b927 ef3b d651 9e3d
00000230: bd29 9bb9 126a ffbc 1c6d 6abd 8f90 7dbd
00000240: f6df efbc 169c 803d 89bf 363d f382 173d
00000250: dc30 213d 0b72 9a3c d9f2 d9bc 33c9 003d
00000260: 73db c8bc 4206 143d 3eab 2b3d b33f 76bd
00000270: 3b6b 80bd 45bb afbd ec97 a83c e848 04bd
00000280: c09f 35bc 91dc 343c 73e6 773c 9b24 99bd
00000290: 750f 1dbc ef7d 81bc d805 9fbc 6a40 b2bd
000002a0: 5c98 76bd fbec a7bc 834d ab3c 2b31 7f3d
000002b0: 764d 3abd 8c3d feb8 aae0 863d b120 d8bc
000002c0: 5c32 0e3d cc5c 5e3d 389d babc 7f10 4bbd
000002d0: 4243 293d f8cd e13c b257 14bd abc2 8cbd
000002e0: 13df f1bb 8108 5b3a 142b 3a3d 33c7 81bd
000002f0: 8d8d 863c 8560 913c f8af a93c d34b 8cbd
00000300: 3a93 d6bc c9cb afbd 9f69 eb3c 2905 47bd
00000310: ed7e 8bbd 999a 843d d3ac 58bd f67c cc3c
00000320: 47e9 4b3d 056e 093d b718 96bd 881f 4bbd
00000330: 65e5 a1bd acaf 9cba b715 f93c 3216 73bd
00000340: fbd9 1f3d e852 a0bd 51c2 83bd 67f2 4abd
00000350: b2f5 2cbc 8dea b13d 9e31 b13d 537a aabd
00000360: 0a28 473b a4d8 4a3d 1f62 15bc 2545 f8bc
00000370: 5784 993c 445b b03d c4e1 42bd 92a8 133c
00000380: ba4c f33b 9070 38bd 884f 51bd a625 2bbc
00000390: b56d 8f3d 7e72 7f3c bb9e 8bbd 6e95 5e3d
000003a0: f359 6abc baa3 edbc 93d5 a63d 8fbd 94bd
000003b0: 394c 4abd f949 31bd 4f56 0f3c 4b0d 213d
000003c0: 0d23 9dbd 4349 2f3c ca71 fd3c a13c 75bc
000003d0: dd76 97bd 1a56 863d 570e 383c 4c4f 943b
000003e0: d375 5b3d 27f8 a33d 2c3d 023d 22ee 03bd
000003f0: 8bdc 07bc 6f50 00bd 84e8 443d 528c 853d
0.052118763 -0.062158965 0.03815247 -0.06511038 0.0861165 0.012759655 -0.008748823 0.07049375
-0.010098055 -0.08071411 0.058758583 0.008044376 -0.07323591 0.011110519 0.06335743 0.050814573
-0.07863926 -0.04748763 0.08701792 0.07582449 0.016162556 -0.019784054 0.084166475 0.008024859
0.06036522 -0.08692099 -0.060504276 0.0070587443 -0.0031832238 -0.0047028484 -0.045140453 0.027771851
-0.07610122 -0.0150490105 -0.07844755 -0.023926452 0.036081165 -0.0177214 -0.07018565 -0.07152386
0.029783944 -0.018218506 0.01945651 0.046589036 -0.03006543 -0.07292494 0.048644923 0.07806295
-0.05049722 -0.06301281 -0.035116874 0.014214824 0.017485112 0.030351076 0.0802291 -0.057397097
0.05447718 0.083870426 -0.04100613 -0.05632437 0.07848679 0.08548495 0.018497005 -0.041358937
-0.027772743 -0.08439178 -0.0102230115 -0.045190535 0.07932355 -0.0073618847 0.03299656 0.052162882
0.039192576 0.03482461 -0.0040889513 -0.0112355165 -0.071605355 -0.04749303 0.0028290653 0.07992252
-0.0017618068 0.034111913 0.03598862 -0.07239329 0.0774611 0.031350125 -0.0141911255 -0.052031815
-0.061050512 -0.028428061 -0.02698114 -0.00685019 0.056773726 -0.051194794 -0.043992866 -0.02470907
-0.043116085 0.016890151 -0.034507845 -0.03783767 0.08053163 -0.021285605 -0.067706086 0.04992809
-0.018324673 -0.03975805 0.07044742 -0.03030034 -0.042082164 0.026730979 -0.020189397 0.07004257
0.06515915 -0.004210712 -0.024952415 0.051274367 0.050032556 -0.05788942 0.024751736 0.024438541
0.086346924 -0.050716437 -0.06469323 -0.023719443 -0.08588281 -0.0019875849 0.04396647 -0.045088314
0.0824977 0.04980128 0.054405887 -0.054999273 0.05241266 0.056412242 0.052371997 -0.06478903
0.035992958 0.019702168 0.0072984365 0.07730453 -0.00029595 -0.031178508 -0.05723296 -0.06190544
-0.029281598 0.06279771 0.044616256 0.036990117 0.039353237 0.018853208 -0.026605057 0.03144188
-0.024518704 0.03613878 0.041911356 -0.060119342 -0.062704526 -0.08580641 0.020580254 -0.03229609
-0.011085451 0.011038915 0.015130627 -0.07477685 -0.009586205 -0.01580712 -0.019411966 -0.08703692
-0.060203895 -0.020498743 0.020910984 0.06230275 -0.04548403 -0.00012123128 0.0658582 -0.026382776
0.034715995 0.054287717 -0.022780046 -0.04957628 0.041323908 0.027564034 -0.036216445 -0.068730675
-0.007381329 0.0008355454 0.04545124 -0.06336822 0.016424919 0.01774622 0.020713791 -0.068504
-0.02619325 -0.08583791 0.028736887 -0.048588905 -0.068113185 0.064748 -0.052899193 0.02496193
0.049783017 0.03355219 -0.07328933 -0.049590617 -0.07905082 -0.001195421 0.030405862 -0.05934734
0.03902624 -0.07828313 -0.06433547 -0.04954758 -0.010556625 0.08687315 0.08652042 -0.08324113
0.0030388855 0.04952301 -0.009117632 -0.030306408 0.018739862 0.086111575 -0.047578588 0.009012358
0.007424918 -0.045029223 -0.051101238 -0.010445988 0.07003347 0.015591262 -0.06817385 0.054341726
-0.014303672 -0.029008735 0.08146205 -0.07262718 -0.049389098 -0.043283436 0.008748605 0.039319318
-0.07672701 0.010698619 0.030938048 -0.014968068 -0.07395718 0.06559391 0.011233888 0.0045260545
0.053579163 0.08006316 0.03179662 -0.032209523 -0.008292328 -0.031326707 0.048073307 0.065209046

spin_embedding.Wq.weight f4 [132, 118]
00000000: b5fc 40bd 4b32 613d 9d00 823d dcad ebbc
00000010: c03e a13b ef32 4dbb 2e79 85bd 4f1b a9bc
00000020: 499b 5e3d a9b1 4a3b ded5 b43d 0f04 9abd
00000030: 34a3 85bd 9dbb a0bd fcab 6ebd e739 9e3c
00000040: 943d 7c3d e058 9abd 5bda 8fbd 00a9 0bbd
00000050: 7fab 5f3d 182a 473d ed3a 19bc 60f9 ab3d
00000060: d337 093d e835 b13d cebf 8139 a681 69bd
00000070: 42a5 863a 31dd ee3c 046c 133d 10a4 b5b9
00000080: 1b14 4e3b 2016 8f3c 1145 a6bc aca2 b83c
00000090: 4f00 70bd cbf2 a5bc 774c 4b3d 6f83 e63c
000000a0: 65ff 523d 3620 7bbd f9f6 ddbc 6536 43bd
000000b0: 7fa9 92bd abce 1abd 4cf5 c0bb 2dfd dcbb
000000c0: 2865 babb 3f2e 6ebd bea7 ccbb ddf7 c73c
000000d0: 0068 873d a71e 643d 528f 9dbd a938 70bd
000000e0: 41b7 943d c6f5 7f3d f74e 513d b679 42bd
000000f0: 43fe 9e3d 842a b7bd abef 95bd 8bfd 063c
00000100: 345e 2f3d 7db4 b1bd c005 5e3c f794 b5ba
00000110: c089 46bc 8cab 93bd f9c2 34bd 7a9a 8d3b
00000120: cd5c b43c 887e 6c3d 2c95 05bd 7f74 b23d
00000130: 26fa 0d3d 8c17 80bd b4b2 bbbd 4484 7d3d
00000140: 38fa e33b 5f60 17bc 5da8 f9bc a946 313d
00000150: 80af 07bd 4aef 89bd 67ee 823d 7baa 21bd
00000160: a51c 593d d4a6 81bd 939a 97bc 9e9f 4ebd
00000170: 7c65 803b 4660 32bc 0afd e03c 713c 92bd
00000180: 0149 a6bd c4f0 953d 325b 90bd 984a fe3c
00000190: fcbc a3bd 3df5 923c 625d 00bb 0c6c 39bd
000001a0: a777 f8ba 002e 393c 0ed4 283b bda1 8e3d
000001b0: 87fb 57bd d6be 2a3d faa3 ad3d 0d6b 87bd
000001c0: 51ab 93bd 21e1 fe3c 7bdb 05bd c80f 08bb
000001d0: 70de afbd 0b53 663d 3229 c7bb b474 b93b
000001e0: 8212 03bd 6ce5 023d 8adf c5ba b846 16bd
000001f0: 7355 bb3c 8c01 0cbd 11f0 0b3d cd92 b4bd
00000200: 21e6 11bd a52d 81bd 636c 203d 2464 84bd
00000210: d313 923d 949f b73c 8e18 673d 91f7 75bd
00000220: 0027 99bd 8182 77bc f32e 4fbd 4d70 ffbc
00000230: aef9 9a3d 2a89 493d c8d0 debc 2ff8 643d
00000240: d290 7cbd 1b1c 5bbd d004 273d 84ca 223d
00000250: ca0c dabc 5fa8 80bd 6ebe 6b3c 0ae0 b53d
00000260: 6a8e b93d 47ac 9a3d de61 8dbd cbf3 793d
00000270: b11a 8a3c 9606 99bd b5bd c13b 2612 b6bd
00000280: f5e4 a13c c456 4fbd 4fb4 7dbd bdc7 923b
00000290: 1052 7e3d 97a4 533d f857 69bd 157a 563d
000002a0: 204c 0c3d c6b7 7bbd 6984 c2bc 07b8 b4bc
000002b0: a03c 99bd 9308 acbd c606 80bd 9664 ab3d
000002c0: 3c60 c8bc c3c7 103c 948e 9cbd f5b7 81bc
000002d0: 8475 0e3d 2084 f4ba 790d edbb a2b9 a0ba
000002e0: 9e88 7d3d bad0 84bd ce4e a9bd 8198 b5bd
000002f0: 8a52 193d de0a 52bd b7ea 24bd 717e 47bc
00000300: e80d 5d3d cdbd 513a f79c 933c 29d5 d3bc
00000310: c936 4d3d 331c 3cbd 9b53 913d 6a30 9b3d
00000320: 9c98 a9bd bec9 eebc 5cbf 35bc 9f0a 4bbd
00000330: 0ff8 a13b 5c85 f7bc 3815 9c3d 4da6 eebb
00000340: 0bc7 52bd d33c 3bbd 7e33 b0bd 36bf 67bd
00000350: 996a 923c 9bcc e33c c583 22bd d588 753a
00000360: f631 3d3d 5c5e 473c 9fea 293c 5c5c 77bd
00000370: 0b41 b13d a0a3 debc 83d9 f83b 2abe 39bc
00000380: b2d0 233d 6d29 9cbd 649f ab3c 3b57 92bd
00000390: e6cf 943d f0a0 14bd 2ef3 993c 3aa0 c73b
000003a0: 95df 15bd 8e4b 49bc 5855 b33d 8ba8 3ebd
000003b0: 4e07 c4bc 148c 783d d95e 5d3d b8a5 d03c
000003c0: 42f9 a4bd a04a 73bc e2c3 b9bd 7a59 3abd
000003d0: 1b3e 21bc 0d85 0ebd d9cb 1a3d adf4 713a
000003e0: 006a 943c c613 dd3c 0f11 b63c 3cd6 b8bd
000003f0: 5643 983c 2121 9b3d 238c fe3c 2957 873d
-0.047116 0.054979604 0.06347773 -0.028769426 0.0049208105 -0.0031310876 -0.06517254 -0.020642905
0.05434731 0.0030928648 0.088298544 -0.07520305 -0.06525269 -0.078482844 -0.058269486 0.01931472
0.061582163 -0.07536483 -0.0702407 -0.034096718 0.05460691 0.048624128 -0.009352428 0.08397174
0.033500504 0.0865286 0.00024747703 -0.057008408 0.0010272639 0.029158207 0.035991684 -0.00034645246
0.003144509 0.017466605 -0.020296605 0.022538505 -0.058594044 -0.020257374 0.04963347 0.028138844
0.051513094 -0.061310016 -0.027095305 -0.047659297 -0.07161235 -0.03779475 -0.0058886167 -0.006744048
-0.0056883283 -0.058149572 -0.0062455824 0.024410183 0.06611633 0.055693295 -0.07693352 -0.058647785
0.072615154 0.062490247 0.051100697 -0.047479354 0.0776334 -0.08943656 -0.07321104 0.00823916
0.04281445 -0.086770035 0.013551176 -0.0013853599 -0.012117803 -0.07210454 -0.044131253 0.0043213936
0.022016907 0.057737857 -0.032612965 0.08713626 0.03466239 -0.06254491 -0.09164944 0.061893716
0.0069573186 -0.009239285 -0.03047579 0.043280277 -0.033126354 -0.06735094 0.06393128 -0.039469223
0.053005833 -0.06330648 -0.018506324 -0.05044519 0.003918348 -0.010887211 0.027464408 -0.071404345
-0.08119393 0.07321313 -0.07048644 0.031041428 -0.0799503 0.017939204 -0.001958691 -0.045269057
-0.0018956558 0.011302471 0.002576116 0.06964443 -0.05273011 0.0416859 0.08478542 -0.06612215
-0.072104104 0.03111321 -0.032680016 -0.002076136 -0.085873485 0.05623154 -0.006077909 0.005659664
-0.032000072 0.031957075 -0.0015096527 -0.036688536 0.022867894 -0.034181163 0.034164492 -0.088170625
-0.03561986 -0.06307534 0.039165866 -0.06464413 0.071326874 0.02241496 0.0564199 -0.06005055
-0.07478142 -0.015106798 -0.050581884 -0.031181479 0.07567154 0.049203075 -0.027199164 0.05590075
-0.06166155 -0.0534936 0.040776074 0.039743915 -0.026617426 -0.06282114 0.014388664 0.08880623
0.090603665 0.075523905 -0.06903432 0.061023515 0.01685843 -0.07471959 0.0059125074 -0.0889018
0.019762496 -0.050619856 -0.061939534 0.004479377 0.06208998 0.051670637 -0.05696866 0.05236252
0.034252286 -0.061454557 -0.023744779 -0.022060407 -0.074822664 -0.08400073 -0.06251292 0.083687946
-0.02445995 0.008836689 -0.07644382 -0.015834788 0.03478004 -0.0018655099 -0.007234272 -0.0012262354
0.061897866 -0.06485124 -0.08266984 -0.088669784 0.03743223 -0.051279895 -0.040262904 -0.012176142
0.05396834 0.0008001 0.018019183 -0.025858479 0.050101075 -0.04592533 0.070960246 0.075775936
-0.08281061 -0.029148933 -0.011092987 -0.049570676 0.004942901 -0.030214958 0.07621235 -0.007283008
-0.051459353 -0.045712303 -0.08603571 -0.056578837 0.017873095 0.027807524 -0.039676446 0.0009366398
0.046190225 0.012168493 0.010370879 -0.060390815 0.08654984 -0.027177632 0.007594289 -0.011336843
0.03999395 -0.07625089 0.020950027 -0.07145544 0.07266216 -0.036286294 0.018792715 0.0060920985
-0.036590178 -0.01228608 0.087565124 -0.046547454 -0.023929264 0.060680464 0.054045532 0.025469646
-0.08055355 -0.014849335 -0.09070565 -0.045495488 -0.009841467 -0.034794856 0.03779206 0.000922988
0.018116951 0.026986968 0.022224931 -0.09025237 0.018586796 0.07574678 0.031072682 0.06608421

spin_embedding.mlp.1.weight f4 [132, 132]
00000000: 6d44 523c 5736 863c 61e7 96bd 9a78 60bc
00000010: 7b3f 163d 1666 043d f9de 943c b0b9 683d
00000020: a001 cb3c 089c 9fbc ec2b 6f3d 238d 863c
00000030: b3d8 5e3d 1a89 dbbc c7cc aabd 4bc7 dbbc
00000040: 26ac d1bc 8eb9 5c3d d4f8 113d be7f 44bc
00000050: 4404 1fbd e935 a5bb bdf0 513a fc1a 993d
00000060: dc76 3bbc f41e 773c c87d c2bb d5d2 5d3c
00000070: 621d a3bd 03a2 803b bc26 8d3c d72b 913a
00000080: 7cbc 6c3d 7e8c 4b3d 9ba7 bcbc 4d88 5c3d
00000090: 6c93 7ebd 5459 6d3c bbae a23c 7404 263d
000000a0: d00e cc3c adb5 66bc 4581 33bd 3bc6 a1bc
000000b0: 5b51 213c a91b a1bd a7c7 f53c 4010 a83d
000000c0: 343e 06bd 8f94 f53c 8dcd fd3c 9b63 0cbd
000000d0: 0311 423d c347 293b d3e4 883d 5e7e dfbc
000000e0: f017 7f3d 3419 84bd 746d e5ba 60ad 2fbd
000000f0: 2f66 93bc 1357 683c cbfd ab3d b4a9 d5bc
00000100: 854f 383d 921b 4b3d 164e 9b3d a1c2 163c
00000110: 7e27 843c 5d73 8fbd b8e1 d0bc 049d 1dbd
00000120: 1e0e aa3d d58d 183d d215 91bb 1c3f abbb
00000130: 91cf 3f3d e9af 9c3d 18f7 61bd c4c5 bc3c
00000140: 7eb7 703b b3c7 84bd e08f 223d ce35 093d
00000150: ba65 84bc e6fc 163d a74d 53bd d5ed 91bd
00000160: f894 aabd 28dc 39bd e0d2 e4bc baab e3bc
00000170: b9a9 a8bd 676a d43c 5281 7bbc 96c6 a0bd
00000180: 6a4e a8bd fac6 753d 1850 99bd 24c3 4e3d
00000190: 58e1 303c ed78 8a3d 6a1d 9abd 2c45 1e3d
000001a0: 7f9e 253d 30c8 b0bb 4036 743b ba1c 85bd
000001b0: ad10 873d 6c0d 283d 0c73 5a3d 5c1d 9cbb
000001c0: 88fb 7abd b570 7e3d b132 a1bd 163f 203d
000001d0: 9438 143b 7894 de3c 77aa 04bd 33b2 08bd
000001e0: 8580 4cbd 49be dcbc 2ba0 823c 5a6e e03c
000001f0: abcf 653d e3e0 52bd 78f2 ce3c f412 9abb
00000200: f479 83bd 7aa6 363c eadf 2bbc 633d 48bd
00000210: 5d5d 91bd 0311 58bd de0f 933d 0e19 3bbd
00000220: 132f f6bc 3fa6 b1bc 878f a2bd e63a ad3d
00000230: 96d8 7a3d e0f2 4bbd dd15 d4bb 10a7 bc3b
00000240: de3f 70bd 3c29 b23d a6d2 623d 8526 b93c
00000250: 2945 90bd 89e0 89bd 54a5 eab9 ec5e 853d
00000260: 8ef1 1abd 90c0 2d3d 68fb 99bc 8951 8abd
00000270: 3994 71bb fb91 623a 8b5e ebbc d4fd a23c
00000280: 0bf8 713d a434 ed3c 603a 913c 9f14 7fbc
00000290: 43ba a33d f7ea 8f3d ebdd ad3a 930e 833d
000002a0: d19f 2e3d 455f 503d b157 8cbd 4499 e83c
000002b0: 23fd 483c 5996 d83c a434 d63b 06a3 1a3d
000002c0: bf30 fcbc 5d06 59bd 16d1 37bd 7870 44bd
000002d0: 88e3 abbd 4ae4 603d 1909 013d d132 a4bc
000002e0: 6305 61bc 0e77 033d 3fef e43b 90cc 6b3b
000002f0: 502f abbd 5480 a53c 9699 a4bd d32f 49bd
00000300: deb5 a23d 9888 07bd 7cc1 58bd 26b5 8c3d
00000310: d8ad 413c c19a 0fbd fb8e eb3c 1e1f afbd
00000320: ae63 b73c 26e2 80bd c25a 91bd 18ad 2fbd
00000330: cb21 843d 05eb 913c cb01 acbc 79ae 87bd
00000340: 1f8a 88bc 4946 6f3d 7b0e 723d 57f7 893d
00000350: fd1c 5a3d 942a 23bd a055 7e3d 12ad 023c
00000360: 726e 653d fd11 4b3d ab3f b83c 0a03 913d
00000370: 26af 323d 13b9 07bd e646 d03c 2b3f 173d
00000380: 807a f83c 22c9 af3d 6628 593d d338 38bd
00000390: c09e 103d 94e0 80bd 79f5 31bc a0d9 073c
000003a0: 7421 a53b 91a7 5ebd 35a6 adbd 6488 eb3c
000003b0: 9074 f13c f0a4 aa3d 8a08 37bd e4a9 89bd
000003c0: 3edc 4ebd 905d f1bb 42f3 6d3c a6c0 a0bd
000003d0: dd8d 8e3d a856 043d f72c 953d cd94 0f3d
000003e0: 47e1 8b3d 3b2e 69bc d714 ea3b 604d eb3c
000003f0: e0e6 0dbb ff0c 413d 9ed6 613d 92e8 323c
0.012833697 0.016383333 -0.07368351 -0.013700629 0.036681633 0.03232392 0.018172728 0.05681771
0.024781048 -0.019483581 0.058391497 0.016424721 0.05440588 -0.026798774 -0.083398394 -0.026828429
-0.025594782 0.053887896 0.03563769 -0.011993347 -0.038822427 -0.005041827 0.000800859 0.0747585
-0.0114419125 0.015083063 -0.0059354044 0.013539036 -0.07964589 0.0039255633 0.017230384 0.0011075687
0.05779694 0.04969453 -0.02302914 0.053840924 -0.06215231 0.0144866295 0.019858709 0.04053159
0.024909407 -0.014081401 -0.043824453 -0.019747844 0.009846057 -0.07866604 0.030002428 0.082062244
-0.032774165 0.029978065 0.030981803 -0.03427468 0.047379505 0.0025830127 0.0668427 -0.027281936
0.062278688 -0.064501196 -0.0017503933 -0.042889953 -0.01799306 0.014180916 0.083980165 -0.026081897
0.04499771 0.04958684 0.07583253 0.009201677 0.016132113 -0.07004426 -0.025498256 -0.03847982
0.08303474 0.037244637 -0.00442765 -0.005226029 0.04682881 0.0765074 -0.055167288 0.02304352
0.0036730464 -0.06483402 0.03968799 0.033498578 -0.016161788 0.036862276 -0.051587727 -0.07125441
-0.08329195 -0.045375973 -0.027932584 -0.027791847 -0.08235497 0.025929643 -0.015350657 -0.07850377
-0.08218081 0.060004212 -0.0748598 0.05047907 0.010795914 0.06761346 -0.075251415 0.038640186
0.040434357 -0.005394958 0.003726378 -0.0649962 0.065949775 0.041028425 0.053332373 -0.004764242
-0.061275035 0.062119205 -0.07870997 0.039122663 0.002261673 0.027170405 -0.03238913 -0.03337307
-0.049927253 -0.026946204 0.015945515 0.02739637 0.05610625 -0.051484 0.025262102 -0.0047019664
-0.06419745 0.01114809 -0.010490397 -0.048886668 -0.07097886 -0.0527506 0.07180761 -0.04567819
-0.030051744 -0.021685718 -0.07937532 0.084584996 0.06124171 -0.04979217 -0.006472333 0.00575722
-0.05865466 0.08699271 0.05537667 0.022601375 -0.07044441 -0.0673228 -0.00044755137 0.065122455
-0.03782802 0.04241997 -0.018796638 -0.06753833 -0.003686203 0.00086429686 -0.028731605 0.019896425
0.059074443 0.028955765 0.01772803 -0.015568881 0.07994511 0.07027238 0.0013264989 0.06399264
0.04263288 0.050872106 -0.06852663 0.028393395 0.012267384 0.026438879 0.006537037 0.037753128
-0.030784963 -0.052984584 -0.044877134 -0.04795882 -0.083930075 0.054905213 0.031502817 -0.020043762
-0.013734194 0.03209596 0.006986528 0.0035980083 -0.083586335 0.020202793 -0.08037107 -0.049117874
0.07944845 -0.03308925 -0.052918896 0.06870489 0.011821233 -0.035059694 0.028754702 -0.08550857
0.022386398 -0.062931344 -0.07097389 -0.042889684 0.06451758 0.017812261 -0.020996949 -0.06625075
-0.016667424 0.05841664 0.05909584 0.067366295 0.0532503 -0.039835528 0.062093377 0.0079758335
0.056013532 0.0495777 0.022491297 0.07080658 0.043624066 -0.033135485 0.025424432 0.036925476
0.03033185 0.08583285 0.053017043 -0.044976067 0.035307646 -0.06292835 -0.010861748 0.008291632
0.0050393883 -0.054359023 -0.08478967 0.02875156 0.029474527 0.083322406 -0.044685878 -0.06721857
-0.050503008 -0.00736589 0.014523329 -0.07849245 0.06960652 0.032309204 0.07283967 0.035054017
0.068300776 -0.014232214 0.0071435976 0.028723419 -0.0021652505 0.047131535 0.055136316 0.010919707

spin_embedding.mlp.3.weight f4 [132, 132]
00000000: 805b 85bb 433e 163d 1e41 b1bd 681f e73c
00000010: d4f8 3a3c 90d1 f8bc 28f0 273d d082 27bd
00000020: 34cb 26bd 2b4a 1abd 89f4 f33c e606 953d
00000030: 6859 2f3b b534 e63c bf32 523d 6071 4d3d
00000040: 5e77 8bbd 6ee1 01bd 4509 013d 7eec a13d
00000050: bab4 9dbd 9a48 b1bd d483 acbc 45ef 0f3d
00000060: 1e9c 773c 5fc3 f7bb 27c6 833d bc8f 6bbd
00000070: 1242 2cbd aa1a a5bc 904c 6c3d f5ab 7ebd
00000080: 3a6c 113d a560 a33d 6ccb 7bbd f499 5a3d
00000090: 85a4 aebd ddc0 af3d 0a72 cdbc 47d9 793d
000000a0: a4b9 633d 3abd 063c 7eb0 8d3d 1a51 623d
000000b0: f618 74bc e5f1 e1bc a310 22bd f4db 75bc
000000c0: ca0d 453c ec57 593b e0f5 883c 55e9 8c3c
000000d0: e283 993d aaa8 a43d 4fcf 1c3d 536e a33d
000000e0: 4c93 a5bd 5e7f 423d 447a 21bd 8c2e 91bd
000000f0: d5f9 80bb a0ec 3b3b 2f79 563c d7cf 433d
00000100: 3eec 633d 4ef3 8fbc fed9 233d 1ec1 31bc
00000110: 3eb4 86bc c4bc 9cbd 3229 aab8 47be 883c
00000120: 69e9 113b 3070 5ebd 8ca4 1e3d 8f2e 02bc
00000130: c3f6 663d c511 b1bd 2e8d a8bd 39d1 1bbd
00000140: 81fd 85bc 6af2 013c 8525 71bd 970e 17bd
00000150: 69bf bc3c 5be4 823d c39c 2f3d 4c76 99bd
00000160: ab86 2fbb fcbf 42bd a4ab a63d 3c99 65bd
00000170: 60df 883c b133 7a3d 1b74 373d feac 5d3d
00000180: 7278 8d3d bb41 0a3d 415f ad3d 3ddf 413d
00000190: 0ae2 7a3c 92cb aabd b9e8 b13d 124f 27bd
000001a0: b858 96bd 0398 643d aea4 8cbd 8d93 d53c
000001b0: b5b9 ee3c e8bb 0fbd df46 8a3d 03bf b2bb
000001c0: 89f5 acbd a1d8 a6bc 513d 0fbd 0d09 0bbd
000001d0: 7bbc 34bd d745 7bbd 99eb a7bd 3dc5 1d3d
000001e0: 8d14 98bd 9cde 0bbd 8078 453c 9d3a a33d
000001f0: 44c2 483d 315d 19bd 7cca 673d ca4d 07bd
00000200: 5c5a a638 06d4 f1bc 8466 8e3c 24e4 1b3d
00000210: e5ef 0abb 08b0 413d 56f3 1abc c3f1 4bbd
00000220: c282 653d 1e07 833d e7b8 bb3c 8c65 693d
00000230: 185f 94bd 7eb0 60bd 7808 8b3d 2ca2 83bd
00000240: 4a58 a53b 25ca 6e3d e5e6 563c 4473 c8bc
00000250: ea73 9abb bb25 a1bc d769 6cbc 1458 a2bd
00000260: 0910 a93d 072c 50bd 6b52 c43c d110 6abd
00000270: 194b ba3c a900 493b 7216 34bd 483f 063c
00000280: d8a8 7dbc dfb3 83bd 0f8f 6f3d ee3f 9bbd
00000290: 977a ea3b 87cd 1d3d 7518 d5ba e197 0b3d
000002a0: 7345 90bc 8d4a f33a 70b3 2bbc b0f0 31bd
000002b0: 933a 8dbd 4071 9dbd 3094 9cbc 40b1 6abd
000002c0: 1aee 9d3c 27b0 87bb 8323 5cbd 0452 48bd
000002d0: 22be 92bb 6563 3abd d0d4 18bd 5fdd 1e3c
000002e0: e166 73bc 77a7 f4bc 7db4 97bd 2bc8 8c3d
000002f0: 268d b6bb fc46 913d de8a 1a3d 2d4a f23c
00000300: a6de 893d e940 93bd 20bd 993d d8c6 53bd
00000310: 635a 16bd 722d 4abd 9bfa c63b eea8 763c
00000320: 3fda 0bbd 6385 af3d ebf2 533d 0029 de3b
00000330: 1fd3 1abd 24b9 863d b1b8 9bbd bf03 5ebd
00000340: 19d1 33bb 19aa 18bd 54c3 ae3d e673 5fbd
00000350: 9c60 793d a868 a43d 6a5d 823d 1706 823d
00000360: eb62 84bb 9089 bfbc 0d2a ca3c dd68 b9bc
00000370: 8da4 65bc 2586 973d 7a13 a23d 739a 983d
00000380: a82f 0d3d f331 003d 23d3 563c b6e6 1f3a
00000390: 7495 b1bd 5085 6cbd 7565 e93b 2909 84bc
000003a0: 9026 8bbd 8340 6dbd 391e 76bd 9dee a83c
000003b0: 6cfa 34ba 34cc 043d a31f 633c 95c7 4f3d
000003c0: edd3 5f3d 24a9 ddba bd3e 8ebc 8333 e63c
000003d0: 30b7 f83c 1f0b ce3c edbf 39bc 9a6d be3c
000003e0: ed66 a3bd b699 433d dacf 783d 850a 973d
000003f0: f084 a8bd 6d7a 9d3c ded3 883d e36f 13bd
-0.0040697455 0.03668047 -0.08654998 0.028213218 0.011411864 -0.030373365 0.041000515 -0.040896237
-0.040721133 -0.03766839 0.02977969 0.072767064 0.002675617 0.028101305 0.051317926 0.05015695
-0.06809877 -0.031709127 0.03150298 0.079064354 -0.077004865 -0.08656426 -0.021058954 0.035140295
0.015112905 -0.007561132 0.06434279 -0.057510123 -0.042055197 -0.020154316 0.057690203 -0.06217571
0.035503604 0.07977418 -0.061473295 0.053369477 -0.08527473 0.085817076 -0.025078792 0.060998227
0.055596963 0.008223826 0.06918429 0.055253126 -0.014898529 -0.027581165 -0.039566647 -0.015006054
0.012027213 0.0033163978 0.016718805 0.017201105 0.07495858 0.080399826 0.038283642 0.07980027
-0.08084735 0.047484748 -0.039423242 -0.07088956 -0.0039360323 0.0028674975 0.013090416 0.047805633
0.05564522 -0.017572071 0.040002815 -0.010849265 -0.016443368 -0.07653192 -8.113905e-05 0.016692294
0.0022264367 -0.05430621 0.038731143 -0.007945671 0.056387674 -0.086459674 -0.08230053 -0.038041327
-0.016356232 0.007931331 -0.058873672 -0.03687915 0.02304049 0.063912116 0.04287411 -0.074932665
-0.002678315 -0.04754637 0.081382066 -0.05605434 0.016708076 0.061084453 0.04478846 0.054120056
0.06907739 0.03375409 0.08465434 0.047332037 0.015312681 -0.08339609 0.086869664 -0.04084689
-0.073411405 0.055809032 -0.06867348 0.026071334 0.029141286 -0.03509131 0.06751799 -0.0054548993
-0.084452696 -0.020366969 -0.034970585 -0.03394418 -0.04412506 -0.0613459 -0.081992336 0.03851818
-0.07425795 -0.034147844 0.012052655 0.07970164 0.04901339 -0.03744239 0.05658959 -0.03303317
7.9323276e-05 -0.029520046 0.017382868 0.03805937 -0.0021200117 0.047287017 -0.00945743 -0.04979111
0.056032903 0.06397842 0.022915317 0.05698161 -0.072447 -0.054855816 0.06788725 -0.06427416
0.0050459253 0.05829825 0.013116573 -0.024469025 -0.004713525 -0.019671312 -0.014429531 -0.07926956
0.082550116 -0.050823238 0.023965081 -0.057144944 0.022740887 0.003067056 -0.043966718 0.008193798
-0.01548215 -0.06430792 0.05848604 -0.07580553 0.007155727 0.038526084 -0.0016257899 0.03408039
-0.017611241 0.0018561647 -0.010479793 -0.043442428 -0.06895938 -0.07687616 -0.01911363 -0.057297945
0.019278575 -0.004140872 -0.053744804 -0.04890634 -0.004478232 -0.045504946 -0.03731233 0.009696334
-0.014856071 -0.02986501 -0.07407472 0.068741165 -0.0055710254 0.07093617 0.03773009 0.029576385
0.0673192 -0.07190115 0.07506776 -0.051703304 -0.036707293 -0.049359746 0.006072355 0.015054924
-0.034143683 0.085703634 0.051745337 0.00677979 -0.037798997 0.065782815 -0.076035865 -0.05420279
-0.0027437864 -0.037271593 0.0853335 -0.05455389 0.06088315 0.08027774 0.063654736 0.06348818
-0.0040401123 -0.023381025 0.024678255 -0.02263301 -0.014016283 0.07398633 0.07913871 0.07451334
0.034469277 0.031297635 0.013111862 0.0006099747 -0.08671084 -0.057744324 0.0071226903 -0.01611765
-0.067944646 -0.05792285 -0.060087416 0.020621592 -0.0006903771 0.032421306 0.013862523 0.050727446
0.054645468 -0.001691137 -0.0173639 0.028100735 0.030360788 0.025151787 -0.011337263 0.023245621
-0.07978616 0.047754012 0.060745098 0.07375053 -0.08228481 0.019223416 0.066810355 -0.035995375

radial_embedding.radial_basis_fn.centers f4 [32]
00000000: 0000 0000 4a29 253e 4a29 a53e efbd f73e
00000010: 4a29 253f 9c73 4e3f efbd 773f 2184 903f
00000020: 4a29 a53f 73ce b93f 9c73 ce3f c618 e33f
00000030: efbd f73f 8c31 0640 2184 1040 b5d6 1a40
00000040: 4b29 2540 df7b 2f40 74ce 3940 0821 4440
00000050: 9d73 4e40 32c6 5840 c618 6340 5b6b 6d40
00000060: f0bd 7740 4208 8140 8c31 8640 d75a 8b40
00000070: 2184 9040 6bad 9540 b6d6 9a40 0000 a040
0.0 0.16129032 0.32258064 0.48387095 0.6451613 0.80645156 0.9677419 1.1290323
1.2903225 1.4516128 1.6129031 1.7741935 1.9354838 2.096774 2.2580645 2.4193547
2.5806453 2.7419355 2.903226 3.064516 3.2258065 3.387097 3.548387 3.7096775
3.8709679 4.032258 4.193548 4.354839 4.516129 4.677419 4.83871 5.0

radial_embedding.radial_basis_fn.widths f4 [32]
00000000: 4a29 253e 4a29 253e 4a29 253e 4a29 253e
00000010: 4a29 253e 4a29 253e 4a29 253e 4a29 253e
00000020: 4a29 253e 4a29 253e 4a29 253e 4a29 253e
00000030: 4a29 253e 4a29 253e 4a29 253e 4a29 253e
00000040: 4a29 253e 4a29 253e 4a29 253e 4a29 253e
00000050: 4a29 253e 4a29 253e 4a29 253e 4a29 253e
00000060: 4a29 253e 4a29 253e 4a29 253e 4a29 253e
00000070: 4a29 253e 4a29 253e 4a29 253e 4a29 253e
0.16129032 0.16129032 0.16129032 0.16129032 0.16129032 0.16129032 0.16129032 0.16129032
0.16129032 0.16129032 0.16129032 0.16129032 0.16129032 0.16129032 0.16129032 0.16129032
0.16129032 0.16129032 0.16129032 0.16129032 0.16129032 0.16129032 0.16129032 0.16129032
0.16129032 0.16129032 0.16129032 0.16129032 0.16129032 0.16129032 0.16129032 0.16129032

euclidean_transformers.0.filter_net_inv.mlp_rbf.0.weight f4 [132, 32]
00000000: 30b3 303e a561 ad3d 6133 2b3e 02fd 00be
00000010: ff83 093d 4a23 ccbd b3a5 86bd f796 2cbe
00000020: 6e71 123e 3b6b 1b3e fc16 2a3e eadc b1bd
00000030: 7cf1 183e 0482 04be 2ca8 c3bd 9469 833d
00000040: 4eab 2bbe 8c0d 6bbc 6367 4f3d 3b52 bc3c
00000050: 5ad6 dd3d 426e 1d3d 613c ddbc 4d4e 0a3e
00000060: 19f6 f83c 3624 c3bc c683 bc3c c09a b4bd
00000070: 5307 443d 4999 093e 3f4f b8bc 3e87 1bbe
00000080: a555 283e 82df 00be 71b9 9bbc 7177 e03d
00000090: eb31 b9bb 93bc d73a 3272 1c3e 9100 00bc
000000a0: f753 cb3d 33fa 0dbe daed eebd 8748 23be
000000b0: f1f0 253d a8be d03d 0b83 9a3d c302 a83d
000000c0: 6944 d73c 057d b83d a7ac 6e3c 9944 9abd
000000d0: e0a0 b3bc b163 33bd 3ecd 25be a33c ce3d
000000e0: a8da 27bd d888 423d b6a6 cebd 4bd0 e6bd
000000f0: c63b c83d 9e9e 6b3d 6e32 cd3b 54c3 fe3c
00000100: f4a0 98bd ad39 a8bc a8e3 b93d 4602 34be
00000110: 29cc f3bc 7f1b 153e 837e 34bc f30b 0dbe
00000120: c373 2b3e b9c3 173e ff92 fbbd 2c54 41bb
00000130: 6bb6 0ebe fb6c e83d d4b3 243d ba52 223e
00000140: 5b70 953d 2ec7 833c 5f09 123e 8363 fdbd
00000150: 802f 05be a262 583d 0537 9abd 84a7 ea3d
00000160: 8b4b 103d 8d5a 6c3d e94a 113e 9c2d a03c
00000170: ac07 03be 2d4a 0dbe b558 eabd 8ca7 623d
00000180: 673b a33c bd7e 27be 1404 0fbe e8d3 dc3d
00000190: 536f 1cbe 6bff 423d 1e3f 7f3c b893 70bd
000001a0: 1f84 16be 5f8d 58bd 2a56 e0bd d36d 863c
000001b0: 81f7 943d 94e7 74bd b687 2ebd fc04 d23d
000001c0: 24b7 b1bd 61eb cabc b1a2 fa3c 8675 1d3e
000001d0: 301c 82bd 8670 5ebd ee49 4b3d 6de7 88bd
000001e0: 4bdc 27bd 00e0 2ebe 5616 d5bd 9d30 07be
000001f0: c50b 00bd 0627 f23d d927 13be f165 d13d
00000200: 78ba 31be 4f30 313e 5cb3 3ebb 32bb 1dbe
00000210: cf1a 8abc 0cb2 bbbd 3ce1 1abe 3783 e3bd
00000220: 78b9 e2bd 1c45 243e c08e 1bbd aedb a4bd
00000230: d7de ed3c 7d9a 40bd 98ce 1d3e 0657 9d3d
00000240: a5b9 0f3e 148f 353d da04 febc ef0b 74bd
00000250: b584 f83d 3c86 1d3d 824f 97bd 0907 e63d
00000260: d346 863d 1c8b cfbd f9ce 02be 522f 9e3d
00000270: 9517 2cbb d193 0d3d 77b9 5ebc b0f7 22be
00000280: c18e b6bd 8964 32be 8edb 8b3d 23fc 483d
00000290: daba ddbd 064d f1bd 7f9e d63d 4420 383c
000002a0: e797 15be 7096 f43c 4a88 4fbc c858 4f3d
000002b0: c92d 283d 24c6 fd39 568e 16be 4a2d f6bc
000002c0: abd9 5d3c 8e6f 083e cc84 2d3e 05a5 1b3e
000002d0: f162 29be 4e5b 89bd 0280 dbbb e263 d6bd
000002e0: fca7 a6bd 38a9 a0bb bb4b f3bc 9059 073e
000002f0: 93c8 1cbe 4c15 903c b8ee e0bd 85ef 9ebd
00000300: 5cba 4b3d dfaa b43d 1dba 24be 3879 21be
00000310: 708f dcbd 6cc1 abbd 8e9e 113e c0c5 06be
00000320: 8d5b 283e ab5b 72bb c201 a8bd 6e9b 9cbd
00000330: 46da 0e3e 44bd 843d 68c8 083e 34ab 90bd
00000340: a2ec 293e 0fb8 11bd dc34 933c 2e30 963d
00000350: c130 d9bd 3d58 cd3d ea6a c0bc a198 2dbe
00000360: a7cb be3d fb3d 20be b6a6 2ebe aaf9 a23d
00000370: 5f92 11be 980b bfbd 9bf3 c03d a96f 293e
00000380: 6dde eabd ebd4 15bc 49d1 02bb ecba 283d
00000390: b2cb 253e 2cf9 33be f97b 09bd f7dc 433d
000003a0: 3162 1dbd fbd5 583d 6cd0 24bd 5976 adbc
000003b0: 81de 7bbc 8bbf 113e bb7b d73d 07b4 f6bd
000003c0: daa3 ebbd f8d5 113e bf0e 96bd 4cae 0d3e
000003d0: 7de6 b0bd 406f d4bd 55ed 01bc 2c37 683d
000003e0: cfc8 f83d 3ed0 a03d 32b3 103e c1ee 1ebe
000003f0: 898c d13d 11d9 623d e4b7 b3bd beb7 1fb8
0.17255855 0.0846589 0.16718818 -0.12596515 0.033573147 -0.09967668 -0.06574573 -0.16854464
0.14301082 0.15177624 0.1661033 -0.08684714 0.14935869 -0.12940222 -0.095535606 0.06416622
-0.16764566 -0.014346492 0.050635707 0.02298843 0.108319 0.03843523 -0.02700633 0.13506432
0.030390786 -0.023820978 0.023012053 -0.08818579 0.047858547 0.1343738 -0.022498725 -0.1518831
0.16438921 -0.12585261 -0.019009324 0.10960282 -0.0056517026 0.0016459398 0.15277937 -0.007812635
0.099281244 -0.13864975 -0.1166646 -0.15945636 0.040512983 0.10192615 0.07544526 0.08203652
0.026277738 0.090082206 0.014567531 -0.07532615 -0.021927297 -0.043796245 -0.16191575 0.10070159
-0.04098001 0.047493786 -0.10090391 -0.112701975 0.09777026 0.057524316 0.006262115 0.031099
-0.07452574 -0.020535314 0.09076625 -0.17578992 -0.029760437 0.1456127 -0.011016491 -0.1377409
0.16743378 0.14820756 -0.12283897 -0.0029499633 -0.13936774 0.113489114 0.04021056 0.1585187
0.07296821 0.016086187 0.14261387 -0.12372496 -0.13006401 0.05282844 -0.075300254 0.11457732
0.035228293 0.057703543 0.14188732 0.019552998 -0.12795895 -0.13797827 -0.11442701 0.055335566
0.019925786 -0.1635694 -0.139664 0.107826054 -0.15276842 0.047606867 0.015579013 -0.058734626
-0.14698838 -0.052869197 -0.109539345 0.01640979 0.0727377 -0.059791163 -0.042609893 0.10254857
-0.086775094 -0.02477044 0.030595155 0.15376863 -0.063530326 -0.05430653 0.04963105 -0.06684766
-0.040981572 -0.17077637 -0.10404651 -0.13202138 -0.031261224 0.118238494 -0.1437067 0.10224522
-0.17356288 0.17303585 -0.0029098606 -0.1540344 -0.016858486 -0.09164819 -0.15124983 -0.111090116
-0.110705316 0.16041988 -0.037977934 -0.08049713 0.029036922 -0.04702233 0.1541084 0.07682614
0.14035662 0.044325903 -0.031008173 -0.059581693 0.12134687 0.038458094 -0.07388212 0.112318106
0.065564774 -0.10133955 -0.12774266 0.077238694 -0.0026259173 0.034564797 -0.013594023 -0.15914798
-0.08913947 -0.17421164 0.06828986 0.04906858 -0.10826655 -0.11782269 0.104794495 0.0112381615
-0.14608727 0.02985689 -0.012666771 0.050621778 0.04105929 0.00048403547 -0.14702734 -0.030050892
0.013540666 0.13323805 0.16945189 0.15199669 -0.1654165 -0.06706868 -0.0066986093 -0.1046827
-0.08137509 -0.004902985 -0.029699197 0.13217759 -0.15310888 0.01758828 -0.10983032 -0.077605285
0.049738273 0.088216536 -0.16086622 -0.15768898 -0.10769546 -0.08386502 0.1422064 -0.13161373
0.16441174 -0.0036980908 -0.0820346 -0.07646833 0.13950452 0.06481412 0.13357699 -0.070639044
0.16594175 -0.035575923 0.017969541 0.07333408 -0.10605002 0.10026596 -0.02348848 -0.16952755
0.09316187 -0.15648644 -0.17055783 0.07957776 -0.14215992 -0.09328383 0.09421464 0.16546501
-0.114682056 -0.009145002 -0.001996117 0.041193888 0.16190985 -0.1757552 -0.033565495 0.04781815
-0.03842372 0.052938443 -0.04023783 -0.021174597 -0.015372873 0.14233224 0.105216466 -0.12046056
-0.115058616 0.14241779 -0.07327031 0.1383602 -0.08637712 -0.10372782 -0.0079301195 0.05669324
0.12147676 0.07852219 0.14130858 -0.15520765 0.10231883 0.055382792 -0.08775309 -3.8079677e-05

euclidean_transformers.0.filter_net_inv.mlp_rbf.0.bias f4 [132]
00000000: 51a2 d63d 45e2 21bd 160d f5bd 0c37 e7bd
00000010: b90f 34be 043c 3dbd 7fe5 9abd 31d9 633d
00000020: b807 623d a891 e5bd 4d51 bc3d 49ac 863d
00000030: 6422 b83c 538e 183e 5d0c a0bd bbc3 21be
00000040: b35a bb3d 6040 9f3c c94d 2abe 6e9d 91bc
00000050: 251d c63c 4f5a 46bd f5fa b33d 1677 77bd
00000060: aee0 6c3c 43aa c93c 7950 813d 83f3 d43d
00000070: c3b0 1abd 3c5d 73bd c5a1 9cbd 15b4 503d
00000080: 2118 7d3d 9165 2bbc 5dd1 c7bd 1672 c4bd
00000090: f2f4 cebd f503 0f3c 4671 e73d db07 72bd
000000a0: eb22 30be 9f27 133d 1b23 0a3e 05ab 08be
000000b0: de81 ce3d d042 f63a d7ab 583d ac2b 2a3e
000000c0: 028f 033e cbad 46bd c936 4dbd 7684 33be
000000d0: ca4c 2abe 605a 03bd 757f d6bd 9d52 193c
000000e0: 45bf d7bd 9c7b 1e3e adcb a5bd 3ff1 0dbd
000000f0: 4811 67bc df9f 5bbd 1793 543d 9573 293e
00000100: daeb 96bd 4aa4 2e3e 97e9 82bd bbd9 043e
00000110: 0d6d aabd b735 d13d 7479 383c 2d94 233e
00000120: 8aed 2d3d 3ce4 ebbd 112c 1c3e 6244 99bd
00000130: 6703 12be 625c de3d 6045 ccbb de7f a8bd
00000140: a801 d5bd b9e4 81bd 97ab 0abc 07af cd3d
00000150: f8b7 333d 6c4a 423d 6683 223e 7c1a 483d
00000160: 0d0c 6ebc ea53 f2bd dd9e 923c f2ae 13bd
00000170: f446 8dbd 8ef9 973d d0ef e0bc 31b1 0cbd
00000180: f4ed 003e 254b c7bd 59a6 523d 5f48 b2bd
00000190: 3af3 b43d 459d f3bc 6bee 16be 6699 7cbd
000001a0: 412b dfbd 5a8f 1a3e f2bf 72bd 1262 ef3d
000001b0: a419 07be f996 293e da1c 05be 5ee7 27be
000001c0: c1df 1dbe 5943 163e 350a 703d 0bd0 eabd
000001d0: d70e 0e3e 5099 b0bd c32e 0e3e 3371 113e
000001e0: ff64 76bd a7ee 5e3d 094e 1fbe 11f8 063a
000001f0: 7f04 8bbd d087 01be 23f5 09be 5601 ffbd
00000200: d4a9 e13c 6388 1c3e f7db 09be 8243 20be
0.10480178 -0.039522428 -0.119653866 -0.11289796 -0.17584123 -0.046199813 -0.07563304 0.05562705
0.055183142 -0.11209422 0.091951944 0.065758295 0.022477336 0.14898042 -0.07814858 -0.15797321
0.09148159 0.019439876 -0.16631235 -0.017775264 0.02418382 -0.04842597 0.08788101 -0.060416304
0.014457865 0.02461732 0.06314177 0.10398009 -0.03776623 -0.059415087 -0.076480426 0.05095299
0.06179059 -0.010461227 -0.0975673 -0.09592073 -0.10105313 0.008728971 0.11300902 -0.059089523
-0.1720082 0.035926457 0.13489954 -0.13346489 0.10083364 0.0018788222 0.052898254 0.16618222
0.12847522 -0.048505586 -0.050101075 -0.17530999 -0.16630855 -0.03206861 -0.10473529 0.009358075
-0.10534529 0.1547684 -0.08095489 -0.0346539 -0.014103241 -0.05361926 0.05189809 0.16547997
-0.07369204 0.17054859 -0.0639221 0.12973683 -0.08321581 0.102153234 0.011259425 0.15974493
0.042462863 -0.115181416 0.15251185 -0.07483746 -0.1425911 0.108574644 -0.006233856 -0.08227514
-0.104007065 -0.063424535 -0.008463762 0.100431494 0.04387662 0.047434255 0.15870437 0.048853382
-0.01452924 -0.118324116 0.017898018 -0.036055513 -0.06898299 0.07420646 -0.027458102 -0.03434867
0.12590772 -0.097311296 0.051428173 -0.0870521 0.08835454 -0.029738078 -0.14739387 -0.06166973
-0.10896922 0.15093747 -0.059265085 0.11688627 -0.13193375 0.16561498 -0.12999287 -0.16396853
-0.15417387 0.14674129 0.058603484 -0.11465462 0.13872848 -0.08622992 0.13885026 0.14203338
-0.06015491 0.054426815 -0.15557112 0.0005148659 -0.06787967 -0.12649465 -0.13472418 -0.12451427
0.0275468 0.15286402 -0.13462816 -0.15650752
